<?xml version="1.0"?>
<net name="vd-net-caffe" version="3" batch="1">
	<layers>
		<layer name="mbox_conf_reshape/DimData_const" type="Const" precision="FP32" id="0">
			<output>
				<port id="0">
					<dim>3</dim>
				</port>
			</output>
			<blobs>
				<custom offset="0" size="12" />
			</blobs>
		</layer>
		<layer name="data" type="Input" precision="FP32" id="1">
			<output>
				<port id="0">
					<dim>1</dim>
					<dim>3</dim>
					<dim>384</dim>
					<dim>672</dim>
				</port>
			</output>
		</layer>
		<layer name="Mul_/Fused_Mul_/FusedScaleShift_" type="ScaleShift" precision="FP32" id="2">
			<data broadcast="0" />
			<input>
				<port id="0">
					<dim>1</dim>
					<dim>3</dim>
					<dim>384</dim>
					<dim>672</dim>
				</port>
			</input>
			<output>
				<port id="1">
					<dim>1</dim>
					<dim>3</dim>
					<dim>384</dim>
					<dim>672</dim>
				</port>
			</output>
			<blobs>
				<biases offset="12" size="12" />
				<weights offset="24" size="12" />
			</blobs>
		</layer>
		<layer name="conv1" type="Convolution" precision="FP32" id="3">
			<data dilations="1,1" group="1" kernel="3,3" output="32" pads_begin="1,1" pads_end="1,1" quantization_level="I8" strides="2,2" />
			<input>
				<port id="0">
					<dim>1</dim>
					<dim>3</dim>
					<dim>384</dim>
					<dim>672</dim>
				</port>
			</input>
			<output>
				<port id="1">
					<dim>1</dim>
					<dim>32</dim>
					<dim>192</dim>
					<dim>336</dim>
				</port>
			</output>
			<blobs>
				<biases offset="36" size="128" />
				<weights offset="164" size="3456" />
			</blobs>
		</layer>
		<layer name="relu1" type="ReLU" precision="FP32" id="4">
			<data negative_slope="0.0" />
			<input>
				<port id="0">
					<dim>1</dim>
					<dim>32</dim>
					<dim>192</dim>
					<dim>336</dim>
				</port>
			</input>
			<output>
				<port id="1">
					<dim>1</dim>
					<dim>32</dim>
					<dim>192</dim>
					<dim>336</dim>
				</port>
			</output>
		</layer>
		<layer name="conv2_1/dw" type="Convolution" precision="FP32" id="5">
			<data dilations="1,1" group="32" kernel="3,3" output="32" pads_begin="1,1" pads_end="1,1" quantization_level="I8" strides="1,1" />
			<input>
				<port id="0">
					<dim>1</dim>
					<dim>32</dim>
					<dim>192</dim>
					<dim>336</dim>
				</port>
			</input>
			<output>
				<port id="1">
					<dim>1</dim>
					<dim>32</dim>
					<dim>192</dim>
					<dim>336</dim>
				</port>
			</output>
			<blobs>
				<biases offset="3620" size="128" />
				<weights offset="3748" size="1152" />
			</blobs>
		</layer>
		<layer name="relu2_1/dw" type="ReLU" precision="FP32" id="6">
			<data negative_slope="0.0" />
			<input>
				<port id="0">
					<dim>1</dim>
					<dim>32</dim>
					<dim>192</dim>
					<dim>336</dim>
				</port>
			</input>
			<output>
				<port id="1">
					<dim>1</dim>
					<dim>32</dim>
					<dim>192</dim>
					<dim>336</dim>
				</port>
			</output>
		</layer>
		<layer name="conv2_1/sep" type="Convolution" precision="FP32" id="7">
			<data dilations="1,1" group="1" kernel="1,1" output="56" pads_begin="0,0" pads_end="0,0" quantization_level="I8" strides="1,1" />
			<input>
				<port id="0">
					<dim>1</dim>
					<dim>32</dim>
					<dim>192</dim>
					<dim>336</dim>
				</port>
			</input>
			<output>
				<port id="1">
					<dim>1</dim>
					<dim>56</dim>
					<dim>192</dim>
					<dim>336</dim>
				</port>
			</output>
			<blobs>
				<biases offset="4900" size="224" />
				<weights offset="5124" size="7168" />
			</blobs>
		</layer>
		<layer name="relu2_1/sep" type="ReLU" precision="FP32" id="8">
			<data negative_slope="0.0" />
			<input>
				<port id="0">
					<dim>1</dim>
					<dim>56</dim>
					<dim>192</dim>
					<dim>336</dim>
				</port>
			</input>
			<output>
				<port id="1">
					<dim>1</dim>
					<dim>56</dim>
					<dim>192</dim>
					<dim>336</dim>
				</port>
			</output>
		</layer>
		<layer name="conv2_2/dw" type="Convolution" precision="FP32" id="9">
			<data dilations="1,1" group="56" kernel="3,3" output="56" pads_begin="1,1" pads_end="1,1" quantization_level="I8" strides="2,2" />
			<input>
				<port id="0">
					<dim>1</dim>
					<dim>56</dim>
					<dim>192</dim>
					<dim>336</dim>
				</port>
			</input>
			<output>
				<port id="1">
					<dim>1</dim>
					<dim>56</dim>
					<dim>96</dim>
					<dim>168</dim>
				</port>
			</output>
			<blobs>
				<biases offset="12292" size="224" />
				<weights offset="12516" size="2016" />
			</blobs>
		</layer>
		<layer name="relu2_2/dw" type="ReLU" precision="FP32" id="10">
			<data negative_slope="0.0" />
			<input>
				<port id="0">
					<dim>1</dim>
					<dim>56</dim>
					<dim>96</dim>
					<dim>168</dim>
				</port>
			</input>
			<output>
				<port id="1">
					<dim>1</dim>
					<dim>56</dim>
					<dim>96</dim>
					<dim>168</dim>
				</port>
			</output>
		</layer>
		<layer name="conv2_2/sep" type="Convolution" precision="FP32" id="11">
			<data dilations="1,1" group="1" kernel="1,1" output="112" pads_begin="0,0" pads_end="0,0" quantization_level="I8" strides="1,1" />
			<input>
				<port id="0">
					<dim>1</dim>
					<dim>56</dim>
					<dim>96</dim>
					<dim>168</dim>
				</port>
			</input>
			<output>
				<port id="1">
					<dim>1</dim>
					<dim>112</dim>
					<dim>96</dim>
					<dim>168</dim>
				</port>
			</output>
			<blobs>
				<biases offset="14532" size="448" />
				<weights offset="14980" size="25088" />
			</blobs>
		</layer>
		<layer name="relu2_2/sep" type="ReLU" precision="FP32" id="12">
			<data negative_slope="0.0" />
			<input>
				<port id="0">
					<dim>1</dim>
					<dim>112</dim>
					<dim>96</dim>
					<dim>168</dim>
				</port>
			</input>
			<output>
				<port id="1">
					<dim>1</dim>
					<dim>112</dim>
					<dim>96</dim>
					<dim>168</dim>
				</port>
			</output>
		</layer>
		<layer name="conv3_1/dw" type="Convolution" precision="FP32" id="13">
			<data dilations="1,1" group="112" kernel="3,3" output="112" pads_begin="1,1" pads_end="1,1" quantization_level="I8" strides="1,1" />
			<input>
				<port id="0">
					<dim>1</dim>
					<dim>112</dim>
					<dim>96</dim>
					<dim>168</dim>
				</port>
			</input>
			<output>
				<port id="1">
					<dim>1</dim>
					<dim>112</dim>
					<dim>96</dim>
					<dim>168</dim>
				</port>
			</output>
			<blobs>
				<biases offset="40068" size="448" />
				<weights offset="40516" size="4032" />
			</blobs>
		</layer>
		<layer name="relu3_1/dw" type="ReLU" precision="FP32" id="14">
			<data negative_slope="0.0" />
			<input>
				<port id="0">
					<dim>1</dim>
					<dim>112</dim>
					<dim>96</dim>
					<dim>168</dim>
				</port>
			</input>
			<output>
				<port id="1">
					<dim>1</dim>
					<dim>112</dim>
					<dim>96</dim>
					<dim>168</dim>
				</port>
			</output>
		</layer>
		<layer name="conv3_1/sep" type="Convolution" precision="FP32" id="15">
			<data dilations="1,1" group="1" kernel="1,1" output="112" pads_begin="0,0" pads_end="0,0" quantization_level="I8" strides="1,1" />
			<input>
				<port id="0">
					<dim>1</dim>
					<dim>112</dim>
					<dim>96</dim>
					<dim>168</dim>
				</port>
			</input>
			<output>
				<port id="1">
					<dim>1</dim>
					<dim>112</dim>
					<dim>96</dim>
					<dim>168</dim>
				</port>
			</output>
			<blobs>
				<biases offset="44548" size="448" />
				<weights offset="44996" size="50176" />
			</blobs>
		</layer>
		<layer name="relu3_1/sep" type="ReLU" precision="FP32" id="16">
			<data negative_slope="0.0" />
			<input>
				<port id="0">
					<dim>1</dim>
					<dim>112</dim>
					<dim>96</dim>
					<dim>168</dim>
				</port>
			</input>
			<output>
				<port id="1">
					<dim>1</dim>
					<dim>112</dim>
					<dim>96</dim>
					<dim>168</dim>
				</port>
			</output>
		</layer>
		<layer name="conv3_2/dw" type="Convolution" precision="FP32" id="17">
			<data dilations="1,1" group="112" kernel="3,3" output="112" pads_begin="1,1" pads_end="1,1" quantization_level="I8" strides="2,2" />
			<input>
				<port id="0">
					<dim>1</dim>
					<dim>112</dim>
					<dim>96</dim>
					<dim>168</dim>
				</port>
			</input>
			<output>
				<port id="1">
					<dim>1</dim>
					<dim>112</dim>
					<dim>48</dim>
					<dim>84</dim>
				</port>
			</output>
			<blobs>
				<biases offset="95172" size="448" />
				<weights offset="95620" size="4032" />
			</blobs>
		</layer>
		<layer name="relu3_2/dw" type="ReLU" precision="FP32" id="18">
			<data negative_slope="0.0" />
			<input>
				<port id="0">
					<dim>1</dim>
					<dim>112</dim>
					<dim>48</dim>
					<dim>84</dim>
				</port>
			</input>
			<output>
				<port id="1">
					<dim>1</dim>
					<dim>112</dim>
					<dim>48</dim>
					<dim>84</dim>
				</port>
			</output>
		</layer>
		<layer name="conv3_2/sep" type="Convolution" precision="FP32" id="19">
			<data dilations="1,1" group="1" kernel="1,1" output="208" pads_begin="0,0" pads_end="0,0" quantization_level="I8" strides="1,1" />
			<input>
				<port id="0">
					<dim>1</dim>
					<dim>112</dim>
					<dim>48</dim>
					<dim>84</dim>
				</port>
			</input>
			<output>
				<port id="1">
					<dim>1</dim>
					<dim>208</dim>
					<dim>48</dim>
					<dim>84</dim>
				</port>
			</output>
			<blobs>
				<biases offset="99652" size="832" />
				<weights offset="100484" size="93184" />
			</blobs>
		</layer>
		<layer name="relu3_2/sep" type="ReLU" precision="FP32" id="20">
			<data negative_slope="0.0" />
			<input>
				<port id="0">
					<dim>1</dim>
					<dim>208</dim>
					<dim>48</dim>
					<dim>84</dim>
				</port>
			</input>
			<output>
				<port id="1">
					<dim>1</dim>
					<dim>208</dim>
					<dim>48</dim>
					<dim>84</dim>
				</port>
			</output>
		</layer>
		<layer name="conv4_1/dw" type="Convolution" precision="FP32" id="21">
			<data dilations="1,1" group="208" kernel="3,3" output="208" pads_begin="1,1" pads_end="1,1" quantization_level="I8" strides="1,1" />
			<input>
				<port id="0">
					<dim>1</dim>
					<dim>208</dim>
					<dim>48</dim>
					<dim>84</dim>
				</port>
			</input>
			<output>
				<port id="1">
					<dim>1</dim>
					<dim>208</dim>
					<dim>48</dim>
					<dim>84</dim>
				</port>
			</output>
			<blobs>
				<biases offset="193668" size="832" />
				<weights offset="194500" size="7488" />
			</blobs>
		</layer>
		<layer name="relu4_1/dw" type="ReLU" precision="FP32" id="22">
			<data negative_slope="0.0" />
			<input>
				<port id="0">
					<dim>1</dim>
					<dim>208</dim>
					<dim>48</dim>
					<dim>84</dim>
				</port>
			</input>
			<output>
				<port id="1">
					<dim>1</dim>
					<dim>208</dim>
					<dim>48</dim>
					<dim>84</dim>
				</port>
			</output>
		</layer>
		<layer name="conv4_1/sep" type="Convolution" precision="FP32" id="23">
			<data dilations="1,1" group="1" kernel="1,1" output="216" pads_begin="0,0" pads_end="0,0" quantization_level="I8" strides="1,1" />
			<input>
				<port id="0">
					<dim>1</dim>
					<dim>208</dim>
					<dim>48</dim>
					<dim>84</dim>
				</port>
			</input>
			<output>
				<port id="1">
					<dim>1</dim>
					<dim>216</dim>
					<dim>48</dim>
					<dim>84</dim>
				</port>
			</output>
			<blobs>
				<biases offset="201988" size="864" />
				<weights offset="202852" size="179712" />
			</blobs>
		</layer>
		<layer name="relu4_1/sep" type="ReLU" precision="FP32" id="24">
			<data negative_slope="0.0" />
			<input>
				<port id="0">
					<dim>1</dim>
					<dim>216</dim>
					<dim>48</dim>
					<dim>84</dim>
				</port>
			</input>
			<output>
				<port id="1">
					<dim>1</dim>
					<dim>216</dim>
					<dim>48</dim>
					<dim>84</dim>
				</port>
			</output>
		</layer>
		<layer name="conv4_2/dw" type="Convolution" precision="FP32" id="25">
			<data dilations="1,1" group="216" kernel="3,3" output="216" pads_begin="1,1" pads_end="1,1" quantization_level="FP32" strides="2,2" />
			<input>
				<port id="0">
					<dim>1</dim>
					<dim>216</dim>
					<dim>48</dim>
					<dim>84</dim>
				</port>
			</input>
			<output>
				<port id="1">
					<dim>1</dim>
					<dim>216</dim>
					<dim>24</dim>
					<dim>42</dim>
				</port>
			</output>
			<blobs>
				<biases offset="382564" size="864" />
				<weights offset="383428" size="7776" />
			</blobs>
		</layer>
		<layer name="relu4_2/dw" type="ReLU" precision="FP32" id="26">
			<data negative_slope="0.0" />
			<input>
				<port id="0">
					<dim>1</dim>
					<dim>216</dim>
					<dim>24</dim>
					<dim>42</dim>
				</port>
			</input>
			<output>
				<port id="1">
					<dim>1</dim>
					<dim>216</dim>
					<dim>24</dim>
					<dim>42</dim>
				</port>
			</output>
		</layer>
		<layer name="conv4_2/sep" type="Convolution" precision="FP32" id="27">
			<data dilations="1,1" group="1" kernel="1,1" output="328" pads_begin="0,0" pads_end="0,0" quantization_level="I8" strides="1,1" />
			<input>
				<port id="0">
					<dim>1</dim>
					<dim>216</dim>
					<dim>24</dim>
					<dim>42</dim>
				</port>
			</input>
			<output>
				<port id="1">
					<dim>1</dim>
					<dim>328</dim>
					<dim>24</dim>
					<dim>42</dim>
				</port>
			</output>
			<blobs>
				<biases offset="391204" size="1312" />
				<weights offset="392516" size="283392" />
			</blobs>
		</layer>
		<layer name="relu4_2/sep" type="ReLU" precision="FP32" id="28">
			<data negative_slope="0.0" />
			<input>
				<port id="0">
					<dim>1</dim>
					<dim>328</dim>
					<dim>24</dim>
					<dim>42</dim>
				</port>
			</input>
			<output>
				<port id="1">
					<dim>1</dim>
					<dim>328</dim>
					<dim>24</dim>
					<dim>42</dim>
				</port>
			</output>
		</layer>
		<layer name="conv5_1/dw" type="Convolution" precision="FP32" id="29">
			<data dilations="1,1" group="328" kernel="3,3" output="328" pads_begin="1,1" pads_end="1,1" quantization_level="FP32" strides="1,1" />
			<input>
				<port id="0">
					<dim>1</dim>
					<dim>328</dim>
					<dim>24</dim>
					<dim>42</dim>
				</port>
			</input>
			<output>
				<port id="1">
					<dim>1</dim>
					<dim>328</dim>
					<dim>24</dim>
					<dim>42</dim>
				</port>
			</output>
			<blobs>
				<biases offset="675908" size="1312" />
				<weights offset="677220" size="11808" />
			</blobs>
		</layer>
		<layer name="relu5_1/dw" type="ReLU" precision="FP32" id="30">
			<data negative_slope="0.0" />
			<input>
				<port id="0">
					<dim>1</dim>
					<dim>328</dim>
					<dim>24</dim>
					<dim>42</dim>
				</port>
			</input>
			<output>
				<port id="1">
					<dim>1</dim>
					<dim>328</dim>
					<dim>24</dim>
					<dim>42</dim>
				</port>
			</output>
		</layer>
		<layer name="conv5_1/sep" type="Convolution" precision="FP32" id="31">
			<data dilations="1,1" group="1" kernel="1,1" output="288" pads_begin="0,0" pads_end="0,0" quantization_level="I8" strides="1,1" />
			<input>
				<port id="0">
					<dim>1</dim>
					<dim>328</dim>
					<dim>24</dim>
					<dim>42</dim>
				</port>
			</input>
			<output>
				<port id="1">
					<dim>1</dim>
					<dim>288</dim>
					<dim>24</dim>
					<dim>42</dim>
				</port>
			</output>
			<blobs>
				<biases offset="689028" size="1152" />
				<weights offset="690180" size="377856" />
			</blobs>
		</layer>
		<layer name="relu5_1/sep" type="ReLU" precision="FP32" id="32">
			<data negative_slope="0.0" />
			<input>
				<port id="0">
					<dim>1</dim>
					<dim>288</dim>
					<dim>24</dim>
					<dim>42</dim>
				</port>
			</input>
			<output>
				<port id="1">
					<dim>1</dim>
					<dim>288</dim>
					<dim>24</dim>
					<dim>42</dim>
				</port>
			</output>
		</layer>
		<layer name="conv5_2/dw" type="Convolution" precision="FP32" id="33">
			<data dilations="1,1" group="288" kernel="3,3" output="288" pads_begin="1,1" pads_end="1,1" quantization_level="I8" strides="1,1" />
			<input>
				<port id="0">
					<dim>1</dim>
					<dim>288</dim>
					<dim>24</dim>
					<dim>42</dim>
				</port>
			</input>
			<output>
				<port id="1">
					<dim>1</dim>
					<dim>288</dim>
					<dim>24</dim>
					<dim>42</dim>
				</port>
			</output>
			<blobs>
				<biases offset="1068036" size="1152" />
				<weights offset="1069188" size="10368" />
			</blobs>
		</layer>
		<layer name="relu5_2/dw" type="ReLU" precision="FP32" id="34">
			<data negative_slope="0.0" />
			<input>
				<port id="0">
					<dim>1</dim>
					<dim>288</dim>
					<dim>24</dim>
					<dim>42</dim>
				</port>
			</input>
			<output>
				<port id="1">
					<dim>1</dim>
					<dim>288</dim>
					<dim>24</dim>
					<dim>42</dim>
				</port>
			</output>
		</layer>
		<layer name="conv5_2/sep" type="Convolution" precision="FP32" id="35">
			<data dilations="1,1" group="1" kernel="1,1" output="288" pads_begin="0,0" pads_end="0,0" quantization_level="I8" strides="1,1" />
			<input>
				<port id="0">
					<dim>1</dim>
					<dim>288</dim>
					<dim>24</dim>
					<dim>42</dim>
				</port>
			</input>
			<output>
				<port id="1">
					<dim>1</dim>
					<dim>288</dim>
					<dim>24</dim>
					<dim>42</dim>
				</port>
			</output>
			<blobs>
				<biases offset="1079556" size="1152" />
				<weights offset="1080708" size="331776" />
			</blobs>
		</layer>
		<layer name="relu5_2/sep" type="ReLU" precision="FP32" id="36">
			<data negative_slope="0.0" />
			<input>
				<port id="0">
					<dim>1</dim>
					<dim>288</dim>
					<dim>24</dim>
					<dim>42</dim>
				</port>
			</input>
			<output>
				<port id="1">
					<dim>1</dim>
					<dim>288</dim>
					<dim>24</dim>
					<dim>42</dim>
				</port>
			</output>
		</layer>
		<layer name="conv5_3/dw" type="Convolution" precision="FP32" id="37">
			<data dilations="1,1" group="288" kernel="3,3" output="288" pads_begin="1,1" pads_end="1,1" quantization_level="I8" strides="1,1" />
			<input>
				<port id="0">
					<dim>1</dim>
					<dim>288</dim>
					<dim>24</dim>
					<dim>42</dim>
				</port>
			</input>
			<output>
				<port id="1">
					<dim>1</dim>
					<dim>288</dim>
					<dim>24</dim>
					<dim>42</dim>
				</port>
			</output>
			<blobs>
				<biases offset="1412484" size="1152" />
				<weights offset="1413636" size="10368" />
			</blobs>
		</layer>
		<layer name="relu5_3/dw" type="ReLU" precision="FP32" id="38">
			<data negative_slope="0.0" />
			<input>
				<port id="0">
					<dim>1</dim>
					<dim>288</dim>
					<dim>24</dim>
					<dim>42</dim>
				</port>
			</input>
			<output>
				<port id="1">
					<dim>1</dim>
					<dim>288</dim>
					<dim>24</dim>
					<dim>42</dim>
				</port>
			</output>
		</layer>
		<layer name="conv5_3/sep" type="Convolution" precision="FP32" id="39">
			<data dilations="1,1" group="1" kernel="1,1" output="240" pads_begin="0,0" pads_end="0,0" quantization_level="I8" strides="1,1" />
			<input>
				<port id="0">
					<dim>1</dim>
					<dim>288</dim>
					<dim>24</dim>
					<dim>42</dim>
				</port>
			</input>
			<output>
				<port id="1">
					<dim>1</dim>
					<dim>240</dim>
					<dim>24</dim>
					<dim>42</dim>
				</port>
			</output>
			<blobs>
				<biases offset="1424004" size="960" />
				<weights offset="1424964" size="276480" />
			</blobs>
		</layer>
		<layer name="relu5_3/sep" type="ReLU" precision="FP32" id="40">
			<data negative_slope="0.0" />
			<input>
				<port id="0">
					<dim>1</dim>
					<dim>240</dim>
					<dim>24</dim>
					<dim>42</dim>
				</port>
			</input>
			<output>
				<port id="1">
					<dim>1</dim>
					<dim>240</dim>
					<dim>24</dim>
					<dim>42</dim>
				</port>
			</output>
		</layer>
		<layer name="conv5_4/dw" type="Convolution" precision="FP32" id="41">
			<data dilations="1,1" group="240" kernel="3,3" output="240" pads_begin="1,1" pads_end="1,1" quantization_level="I8" strides="1,1" />
			<input>
				<port id="0">
					<dim>1</dim>
					<dim>240</dim>
					<dim>24</dim>
					<dim>42</dim>
				</port>
			</input>
			<output>
				<port id="1">
					<dim>1</dim>
					<dim>240</dim>
					<dim>24</dim>
					<dim>42</dim>
				</port>
			</output>
			<blobs>
				<biases offset="1701444" size="960" />
				<weights offset="1702404" size="8640" />
			</blobs>
		</layer>
		<layer name="relu5_4/dw" type="ReLU" precision="FP32" id="42">
			<data negative_slope="0.0" />
			<input>
				<port id="0">
					<dim>1</dim>
					<dim>240</dim>
					<dim>24</dim>
					<dim>42</dim>
				</port>
			</input>
			<output>
				<port id="1">
					<dim>1</dim>
					<dim>240</dim>
					<dim>24</dim>
					<dim>42</dim>
				</port>
			</output>
		</layer>
		<layer name="conv5_4/sep" type="Convolution" precision="FP32" id="43">
			<data dilations="1,1" group="1" kernel="1,1" output="264" pads_begin="0,0" pads_end="0,0" quantization_level="I8" strides="1,1" />
			<input>
				<port id="0">
					<dim>1</dim>
					<dim>240</dim>
					<dim>24</dim>
					<dim>42</dim>
				</port>
			</input>
			<output>
				<port id="1">
					<dim>1</dim>
					<dim>264</dim>
					<dim>24</dim>
					<dim>42</dim>
				</port>
			</output>
			<blobs>
				<biases offset="1711044" size="1056" />
				<weights offset="1712100" size="253440" />
			</blobs>
		</layer>
		<layer name="relu5_4/sep" type="ReLU" precision="FP32" id="44">
			<data negative_slope="0.0" />
			<input>
				<port id="0">
					<dim>1</dim>
					<dim>264</dim>
					<dim>24</dim>
					<dim>42</dim>
				</port>
			</input>
			<output>
				<port id="1">
					<dim>1</dim>
					<dim>264</dim>
					<dim>24</dim>
					<dim>42</dim>
				</port>
			</output>
		</layer>
		<layer name="conv5_5/dw" type="Convolution" precision="FP32" id="45">
			<data dilations="1,1" group="264" kernel="3,3" output="264" pads_begin="1,1" pads_end="1,1" quantization_level="FP32" strides="1,1" />
			<input>
				<port id="0">
					<dim>1</dim>
					<dim>264</dim>
					<dim>24</dim>
					<dim>42</dim>
				</port>
			</input>
			<output>
				<port id="1">
					<dim>1</dim>
					<dim>264</dim>
					<dim>24</dim>
					<dim>42</dim>
				</port>
			</output>
			<blobs>
				<biases offset="1965540" size="1056" />
				<weights offset="1966596" size="9504" />
			</blobs>
		</layer>
		<layer name="relu5_5/dw" type="ReLU" precision="FP32" id="46">
			<data negative_slope="0.0" />
			<input>
				<port id="0">
					<dim>1</dim>
					<dim>264</dim>
					<dim>24</dim>
					<dim>42</dim>
				</port>
			</input>
			<output>
				<port id="1">
					<dim>1</dim>
					<dim>264</dim>
					<dim>24</dim>
					<dim>42</dim>
				</port>
			</output>
		</layer>
		<layer name="conv5_5/sep" type="Convolution" precision="FP32" id="47">
			<data dilations="1,1" group="1" kernel="1,1" output="192" pads_begin="0,0" pads_end="0,0" quantization_level="I8" strides="1,1" />
			<input>
				<port id="0">
					<dim>1</dim>
					<dim>264</dim>
					<dim>24</dim>
					<dim>42</dim>
				</port>
			</input>
			<output>
				<port id="1">
					<dim>1</dim>
					<dim>192</dim>
					<dim>24</dim>
					<dim>42</dim>
				</port>
			</output>
			<blobs>
				<biases offset="1976100" size="768" />
				<weights offset="1976868" size="202752" />
			</blobs>
		</layer>
		<layer name="relu5_5/sep" type="ReLU" precision="FP32" id="48">
			<data negative_slope="0.0" />
			<input>
				<port id="0">
					<dim>1</dim>
					<dim>192</dim>
					<dim>24</dim>
					<dim>42</dim>
				</port>
			</input>
			<output>
				<port id="1">
					<dim>1</dim>
					<dim>192</dim>
					<dim>24</dim>
					<dim>42</dim>
				</port>
			</output>
		</layer>
		<layer name="conv5_6/dw" type="Convolution" precision="FP32" id="49">
			<data dilations="1,1" group="192" kernel="3,3" output="192" pads_begin="1,1" pads_end="1,1" quantization_level="I8" strides="2,2" />
			<input>
				<port id="0">
					<dim>1</dim>
					<dim>192</dim>
					<dim>24</dim>
					<dim>42</dim>
				</port>
			</input>
			<output>
				<port id="1">
					<dim>1</dim>
					<dim>192</dim>
					<dim>12</dim>
					<dim>21</dim>
				</port>
			</output>
			<blobs>
				<biases offset="2179620" size="768" />
				<weights offset="2180388" size="6912" />
			</blobs>
		</layer>
		<layer name="relu5_6/dw" type="ReLU" precision="FP32" id="50">
			<data negative_slope="0.0" />
			<input>
				<port id="0">
					<dim>1</dim>
					<dim>192</dim>
					<dim>12</dim>
					<dim>21</dim>
				</port>
			</input>
			<output>
				<port id="1">
					<dim>1</dim>
					<dim>192</dim>
					<dim>12</dim>
					<dim>21</dim>
				</port>
			</output>
		</layer>
		<layer name="conv5_6/sep" type="Convolution" precision="FP32" id="51">
			<data dilations="1,1" group="1" kernel="1,1" output="208" pads_begin="0,0" pads_end="0,0" quantization_level="I8" strides="1,1" />
			<input>
				<port id="0">
					<dim>1</dim>
					<dim>192</dim>
					<dim>12</dim>
					<dim>21</dim>
				</port>
			</input>
			<output>
				<port id="1">
					<dim>1</dim>
					<dim>208</dim>
					<dim>12</dim>
					<dim>21</dim>
				</port>
			</output>
			<blobs>
				<biases offset="2187300" size="832" />
				<weights offset="2188132" size="159744" />
			</blobs>
		</layer>
		<layer name="relu5_6/sep" type="ReLU" precision="FP32" id="52">
			<data negative_slope="0.0" />
			<input>
				<port id="0">
					<dim>1</dim>
					<dim>208</dim>
					<dim>12</dim>
					<dim>21</dim>
				</port>
			</input>
			<output>
				<port id="1">
					<dim>1</dim>
					<dim>208</dim>
					<dim>12</dim>
					<dim>21</dim>
				</port>
			</output>
		</layer>
		<layer name="conv6/dw" type="Convolution" precision="FP32" id="53">
			<data dilations="1,1" group="208" kernel="3,3" output="208" pads_begin="1,1" pads_end="1,1" quantization_level="I8" strides="1,1" />
			<input>
				<port id="0">
					<dim>1</dim>
					<dim>208</dim>
					<dim>12</dim>
					<dim>21</dim>
				</port>
			</input>
			<output>
				<port id="1">
					<dim>1</dim>
					<dim>208</dim>
					<dim>12</dim>
					<dim>21</dim>
				</port>
			</output>
			<blobs>
				<biases offset="2347876" size="832" />
				<weights offset="2348708" size="7488" />
			</blobs>
		</layer>
		<layer name="relu6/dw" type="ReLU" precision="FP32" id="54">
			<data negative_slope="0.0" />
			<input>
				<port id="0">
					<dim>1</dim>
					<dim>208</dim>
					<dim>12</dim>
					<dim>21</dim>
				</port>
			</input>
			<output>
				<port id="1">
					<dim>1</dim>
					<dim>208</dim>
					<dim>12</dim>
					<dim>21</dim>
				</port>
			</output>
		</layer>
		<layer name="conv6/sep" type="Convolution" precision="FP32" id="55">
			<data dilations="1,1" group="1" kernel="1,1" output="88" pads_begin="0,0" pads_end="0,0" quantization_level="I8" strides="1,1" />
			<input>
				<port id="0">
					<dim>1</dim>
					<dim>208</dim>
					<dim>12</dim>
					<dim>21</dim>
				</port>
			</input>
			<output>
				<port id="1">
					<dim>1</dim>
					<dim>88</dim>
					<dim>12</dim>
					<dim>21</dim>
				</port>
			</output>
			<blobs>
				<biases offset="2356196" size="352" />
				<weights offset="2356548" size="73216" />
			</blobs>
		</layer>
		<layer name="relu6/sep" type="ReLU" precision="FP32" id="56">
			<data negative_slope="0.0" />
			<input>
				<port id="0">
					<dim>1</dim>
					<dim>88</dim>
					<dim>12</dim>
					<dim>21</dim>
				</port>
			</input>
			<output>
				<port id="1">
					<dim>1</dim>
					<dim>88</dim>
					<dim>12</dim>
					<dim>21</dim>
				</port>
			</output>
		</layer>
		<layer name="fc7_mbox_priorbox" type="PriorBox" precision="FP32" id="57">
			<data aspect_ratio="2.0,3.0" clip="0" flip="1" max_size="172.8000030517578" min_size="124.80000305175781" offset="0.5" step="32.0" variance="0.10000000149011612,0.10000000149011612,0.20000000298023224,0.20000000298023224" />
			<input>
				<port id="0">
					<dim>1</dim>
					<dim>88</dim>
					<dim>12</dim>
					<dim>21</dim>
				</port>
				<port id="1">
					<dim>1</dim>
					<dim>3</dim>
					<dim>384</dim>
					<dim>672</dim>
				</port>
			</input>
			<output>
				<port id="2">
					<dim>1</dim>
					<dim>2</dim>
					<dim>6048</dim>
				</port>
			</output>
		</layer>
		<layer name="fc7_mbox_loc" type="Convolution" precision="FP32" id="58">
			<data dilations="1,1" group="1" kernel="3,3" output="24" pads_begin="1,1" pads_end="1,1" quantization_level="I8" strides="1,1" />
			<input>
				<port id="0">
					<dim>1</dim>
					<dim>88</dim>
					<dim>12</dim>
					<dim>21</dim>
				</port>
			</input>
			<output>
				<port id="1">
					<dim>1</dim>
					<dim>24</dim>
					<dim>12</dim>
					<dim>21</dim>
				</port>
			</output>
			<blobs>
				<biases offset="2429764" size="96" />
				<weights offset="2429860" size="76032" />
			</blobs>
		</layer>
		<layer name="fc7_mbox_loc_perm" type="Permute" precision="FP32" id="59">
			<data order="0,2,3,1" />
			<input>
				<port id="0">
					<dim>1</dim>
					<dim>24</dim>
					<dim>12</dim>
					<dim>21</dim>
				</port>
			</input>
			<output>
				<port id="1">
					<dim>1</dim>
					<dim>12</dim>
					<dim>21</dim>
					<dim>24</dim>
				</port>
			</output>
		</layer>
		<layer name="fc7_mbox_loc_flat" type="Flatten" precision="FP32" id="60">
			<data axis="1" end_axis="-1" />
			<input>
				<port id="0">
					<dim>1</dim>
					<dim>12</dim>
					<dim>21</dim>
					<dim>24</dim>
				</port>
			</input>
			<output>
				<port id="1">
					<dim>1</dim>
					<dim>6048</dim>
				</port>
			</output>
		</layer>
		<layer name="fc7_mbox_conf" type="Convolution" precision="FP32" id="61">
			<data dilations="1,1" group="1" kernel="3,3" output="12" pads_begin="1,1" pads_end="1,1" quantization_level="I8" strides="1,1" />
			<input>
				<port id="0">
					<dim>1</dim>
					<dim>88</dim>
					<dim>12</dim>
					<dim>21</dim>
				</port>
			</input>
			<output>
				<port id="1">
					<dim>1</dim>
					<dim>12</dim>
					<dim>12</dim>
					<dim>21</dim>
				</port>
			</output>
			<blobs>
				<biases offset="2505892" size="48" />
				<weights offset="2505940" size="38016" />
			</blobs>
		</layer>
		<layer name="fc7_mbox_conf_perm" type="Permute" precision="FP32" id="62">
			<data order="0,2,3,1" />
			<input>
				<port id="0">
					<dim>1</dim>
					<dim>12</dim>
					<dim>12</dim>
					<dim>21</dim>
				</port>
			</input>
			<output>
				<port id="1">
					<dim>1</dim>
					<dim>12</dim>
					<dim>21</dim>
					<dim>12</dim>
				</port>
			</output>
		</layer>
		<layer name="fc7_mbox_conf_flat" type="Flatten" precision="FP32" id="63">
			<data axis="1" end_axis="-1" />
			<input>
				<port id="0">
					<dim>1</dim>
					<dim>12</dim>
					<dim>21</dim>
					<dim>12</dim>
				</port>
			</input>
			<output>
				<port id="1">
					<dim>1</dim>
					<dim>3024</dim>
				</port>
			</output>
		</layer>
		<layer name="fc7_0_mbox_priorbox" type="PriorBox" precision="FP32" id="64">
			<data aspect_ratio="2.0,3.0" clip="0" flip="1" max_size="124.80000305175781" min_size="76.80000305175781" offset="0.5" step="32.0" variance="0.10000000149011612,0.10000000149011612,0.20000000298023224,0.20000000298023224" />
			<input>
				<port id="0">
					<dim>1</dim>
					<dim>88</dim>
					<dim>12</dim>
					<dim>21</dim>
				</port>
				<port id="1">
					<dim>1</dim>
					<dim>3</dim>
					<dim>384</dim>
					<dim>672</dim>
				</port>
			</input>
			<output>
				<port id="2">
					<dim>1</dim>
					<dim>2</dim>
					<dim>6048</dim>
				</port>
			</output>
		</layer>
		<layer name="fc7_0_mbox_loc" type="Convolution" precision="FP32" id="65">
			<data dilations="1,1" group="1" kernel="3,3" output="24" pads_begin="1,1" pads_end="1,1" quantization_level="I8" strides="1,1" />
			<input>
				<port id="0">
					<dim>1</dim>
					<dim>88</dim>
					<dim>12</dim>
					<dim>21</dim>
				</port>
			</input>
			<output>
				<port id="1">
					<dim>1</dim>
					<dim>24</dim>
					<dim>12</dim>
					<dim>21</dim>
				</port>
			</output>
			<blobs>
				<biases offset="2543956" size="96" />
				<weights offset="2544052" size="76032" />
			</blobs>
		</layer>
		<layer name="fc7_0_mbox_loc_perm" type="Permute" precision="FP32" id="66">
			<data order="0,2,3,1" />
			<input>
				<port id="0">
					<dim>1</dim>
					<dim>24</dim>
					<dim>12</dim>
					<dim>21</dim>
				</port>
			</input>
			<output>
				<port id="1">
					<dim>1</dim>
					<dim>12</dim>
					<dim>21</dim>
					<dim>24</dim>
				</port>
			</output>
		</layer>
		<layer name="fc7_0_mbox_loc_flat" type="Flatten" precision="FP32" id="67">
			<data axis="1" end_axis="-1" />
			<input>
				<port id="0">
					<dim>1</dim>
					<dim>12</dim>
					<dim>21</dim>
					<dim>24</dim>
				</port>
			</input>
			<output>
				<port id="1">
					<dim>1</dim>
					<dim>6048</dim>
				</port>
			</output>
		</layer>
		<layer name="fc7_0_mbox_conf" type="Convolution" precision="FP32" id="68">
			<data dilations="1,1" group="1" kernel="3,3" output="12" pads_begin="1,1" pads_end="1,1" quantization_level="I8" strides="1,1" />
			<input>
				<port id="0">
					<dim>1</dim>
					<dim>88</dim>
					<dim>12</dim>
					<dim>21</dim>
				</port>
			</input>
			<output>
				<port id="1">
					<dim>1</dim>
					<dim>12</dim>
					<dim>12</dim>
					<dim>21</dim>
				</port>
			</output>
			<blobs>
				<biases offset="2620084" size="48" />
				<weights offset="2620132" size="38016" />
			</blobs>
		</layer>
		<layer name="fc7_0_mbox_conf_perm" type="Permute" precision="FP32" id="69">
			<data order="0,2,3,1" />
			<input>
				<port id="0">
					<dim>1</dim>
					<dim>12</dim>
					<dim>12</dim>
					<dim>21</dim>
				</port>
			</input>
			<output>
				<port id="1">
					<dim>1</dim>
					<dim>12</dim>
					<dim>21</dim>
					<dim>12</dim>
				</port>
			</output>
		</layer>
		<layer name="fc7_0_mbox_conf_flat" type="Flatten" precision="FP32" id="70">
			<data axis="1" end_axis="-1" />
			<input>
				<port id="0">
					<dim>1</dim>
					<dim>12</dim>
					<dim>21</dim>
					<dim>12</dim>
				</port>
			</input>
			<output>
				<port id="1">
					<dim>1</dim>
					<dim>3024</dim>
				</port>
			</output>
		</layer>
		<layer name="conv6_1" type="Convolution" precision="FP32" id="71">
			<data dilations="1,1" group="1" kernel="1,1" output="96" pads_begin="0,0" pads_end="0,0" quantization_level="I8" strides="1,1" />
			<input>
				<port id="0">
					<dim>1</dim>
					<dim>88</dim>
					<dim>12</dim>
					<dim>21</dim>
				</port>
			</input>
			<output>
				<port id="1">
					<dim>1</dim>
					<dim>96</dim>
					<dim>12</dim>
					<dim>21</dim>
				</port>
			</output>
			<blobs>
				<biases offset="2658148" size="384" />
				<weights offset="2658532" size="33792" />
			</blobs>
		</layer>
		<layer name="relu6_1" type="ReLU" precision="FP32" id="72">
			<data negative_slope="0.0" />
			<input>
				<port id="0">
					<dim>1</dim>
					<dim>96</dim>
					<dim>12</dim>
					<dim>21</dim>
				</port>
			</input>
			<output>
				<port id="1">
					<dim>1</dim>
					<dim>96</dim>
					<dim>12</dim>
					<dim>21</dim>
				</port>
			</output>
		</layer>
		<layer name="conv6_2/dw" type="Convolution" precision="FP32" id="73">
			<data dilations="1,1" group="96" kernel="3,3" output="96" pads_begin="1,1" pads_end="1,1" quantization_level="I8" strides="2,2" />
			<input>
				<port id="0">
					<dim>1</dim>
					<dim>96</dim>
					<dim>12</dim>
					<dim>21</dim>
				</port>
			</input>
			<output>
				<port id="1">
					<dim>1</dim>
					<dim>96</dim>
					<dim>6</dim>
					<dim>11</dim>
				</port>
			</output>
			<blobs>
				<biases offset="2692324" size="384" />
				<weights offset="2692708" size="3456" />
			</blobs>
		</layer>
		<layer name="relu6_2/dw" type="ReLU" precision="FP32" id="74">
			<data negative_slope="0.0" />
			<input>
				<port id="0">
					<dim>1</dim>
					<dim>96</dim>
					<dim>6</dim>
					<dim>11</dim>
				</port>
			</input>
			<output>
				<port id="1">
					<dim>1</dim>
					<dim>96</dim>
					<dim>6</dim>
					<dim>11</dim>
				</port>
			</output>
		</layer>
		<layer name="conv6_2" type="Convolution" precision="FP32" id="75">
			<data dilations="1,1" group="1" kernel="1,1" output="152" pads_begin="0,0" pads_end="0,0" quantization_level="I8" strides="1,1" />
			<input>
				<port id="0">
					<dim>1</dim>
					<dim>96</dim>
					<dim>6</dim>
					<dim>11</dim>
				</port>
			</input>
			<output>
				<port id="1">
					<dim>1</dim>
					<dim>152</dim>
					<dim>6</dim>
					<dim>11</dim>
				</port>
			</output>
			<blobs>
				<biases offset="2696164" size="608" />
				<weights offset="2696772" size="58368" />
			</blobs>
		</layer>
		<layer name="relu6_2" type="ReLU" precision="FP32" id="76">
			<data negative_slope="0.0" />
			<input>
				<port id="0">
					<dim>1</dim>
					<dim>152</dim>
					<dim>6</dim>
					<dim>11</dim>
				</port>
			</input>
			<output>
				<port id="1">
					<dim>1</dim>
					<dim>152</dim>
					<dim>6</dim>
					<dim>11</dim>
				</port>
			</output>
		</layer>
		<layer name="conv7_1" type="Convolution" precision="FP32" id="77">
			<data dilations="1,1" group="1" kernel="1,1" output="112" pads_begin="0,0" pads_end="0,0" quantization_level="I8" strides="1,1" />
			<input>
				<port id="0">
					<dim>1</dim>
					<dim>152</dim>
					<dim>6</dim>
					<dim>11</dim>
				</port>
			</input>
			<output>
				<port id="1">
					<dim>1</dim>
					<dim>112</dim>
					<dim>6</dim>
					<dim>11</dim>
				</port>
			</output>
			<blobs>
				<biases offset="2755140" size="448" />
				<weights offset="2755588" size="68096" />
			</blobs>
		</layer>
		<layer name="relu7_1" type="ReLU" precision="FP32" id="78">
			<data negative_slope="0.0" />
			<input>
				<port id="0">
					<dim>1</dim>
					<dim>112</dim>
					<dim>6</dim>
					<dim>11</dim>
				</port>
			</input>
			<output>
				<port id="1">
					<dim>1</dim>
					<dim>112</dim>
					<dim>6</dim>
					<dim>11</dim>
				</port>
			</output>
		</layer>
		<layer name="conv7_2/dw" type="Convolution" precision="FP32" id="79">
			<data dilations="1,1" group="112" kernel="3,3" output="112" pads_begin="1,1" pads_end="1,1" quantization_level="I8" strides="2,2" />
			<input>
				<port id="0">
					<dim>1</dim>
					<dim>112</dim>
					<dim>6</dim>
					<dim>11</dim>
				</port>
			</input>
			<output>
				<port id="1">
					<dim>1</dim>
					<dim>112</dim>
					<dim>3</dim>
					<dim>6</dim>
				</port>
			</output>
			<blobs>
				<biases offset="2823684" size="448" />
				<weights offset="2824132" size="4032" />
			</blobs>
		</layer>
		<layer name="relu7_2/dw" type="ReLU" precision="FP32" id="80">
			<data negative_slope="0.0" />
			<input>
				<port id="0">
					<dim>1</dim>
					<dim>112</dim>
					<dim>3</dim>
					<dim>6</dim>
				</port>
			</input>
			<output>
				<port id="1">
					<dim>1</dim>
					<dim>112</dim>
					<dim>3</dim>
					<dim>6</dim>
				</port>
			</output>
		</layer>
		<layer name="conv7_2" type="Convolution" precision="FP32" id="81">
			<data dilations="1,1" group="1" kernel="1,1" output="200" pads_begin="0,0" pads_end="0,0" quantization_level="I8" strides="1,1" />
			<input>
				<port id="0">
					<dim>1</dim>
					<dim>112</dim>
					<dim>3</dim>
					<dim>6</dim>
				</port>
			</input>
			<output>
				<port id="1">
					<dim>1</dim>
					<dim>200</dim>
					<dim>3</dim>
					<dim>6</dim>
				</port>
			</output>
			<blobs>
				<biases offset="2828164" size="800" />
				<weights offset="2828964" size="89600" />
			</blobs>
		</layer>
		<layer name="relu7_2" type="ReLU" precision="FP32" id="82">
			<data negative_slope="0.0" />
			<input>
				<port id="0">
					<dim>1</dim>
					<dim>200</dim>
					<dim>3</dim>
					<dim>6</dim>
				</port>
			</input>
			<output>
				<port id="1">
					<dim>1</dim>
					<dim>200</dim>
					<dim>3</dim>
					<dim>6</dim>
				</port>
			</output>
		</layer>
		<layer name="conv8_1" type="Convolution" precision="FP32" id="83">
			<data dilations="1,1" group="1" kernel="1,1" output="120" pads_begin="0,0" pads_end="0,0" quantization_level="I8" strides="1,1" />
			<input>
				<port id="0">
					<dim>1</dim>
					<dim>200</dim>
					<dim>3</dim>
					<dim>6</dim>
				</port>
			</input>
			<output>
				<port id="1">
					<dim>1</dim>
					<dim>120</dim>
					<dim>3</dim>
					<dim>6</dim>
				</port>
			</output>
			<blobs>
				<biases offset="2918564" size="480" />
				<weights offset="2919044" size="96000" />
			</blobs>
		</layer>
		<layer name="relu8_1" type="ReLU" precision="FP32" id="84">
			<data negative_slope="0.0" />
			<input>
				<port id="0">
					<dim>1</dim>
					<dim>120</dim>
					<dim>3</dim>
					<dim>6</dim>
				</port>
			</input>
			<output>
				<port id="1">
					<dim>1</dim>
					<dim>120</dim>
					<dim>3</dim>
					<dim>6</dim>
				</port>
			</output>
		</layer>
		<layer name="conv8_2/dw" type="Convolution" precision="FP32" id="85">
			<data dilations="1,1" group="120" kernel="3,3" output="120" pads_begin="1,1" pads_end="1,1" quantization_level="FP32" strides="2,2" />
			<input>
				<port id="0">
					<dim>1</dim>
					<dim>120</dim>
					<dim>3</dim>
					<dim>6</dim>
				</port>
			</input>
			<output>
				<port id="1">
					<dim>1</dim>
					<dim>120</dim>
					<dim>2</dim>
					<dim>3</dim>
				</port>
			</output>
			<blobs>
				<biases offset="3015044" size="480" />
				<weights offset="3015524" size="4320" />
			</blobs>
		</layer>
		<layer name="relu8_2/dw" type="ReLU" precision="FP32" id="86">
			<data negative_slope="0.0" />
			<input>
				<port id="0">
					<dim>1</dim>
					<dim>120</dim>
					<dim>2</dim>
					<dim>3</dim>
				</port>
			</input>
			<output>
				<port id="1">
					<dim>1</dim>
					<dim>120</dim>
					<dim>2</dim>
					<dim>3</dim>
				</port>
			</output>
		</layer>
		<layer name="conv8_2" type="Convolution" precision="FP32" id="87">
			<data dilations="1,1" group="1" kernel="1,1" output="224" pads_begin="0,0" pads_end="0,0" quantization_level="I8" strides="1,1" />
			<input>
				<port id="0">
					<dim>1</dim>
					<dim>120</dim>
					<dim>2</dim>
					<dim>3</dim>
				</port>
			</input>
			<output>
				<port id="1">
					<dim>1</dim>
					<dim>224</dim>
					<dim>2</dim>
					<dim>3</dim>
				</port>
			</output>
			<blobs>
				<biases offset="3019844" size="896" />
				<weights offset="3020740" size="107520" />
			</blobs>
		</layer>
		<layer name="relu8_2" type="ReLU" precision="FP32" id="88">
			<data negative_slope="0.0" />
			<input>
				<port id="0">
					<dim>1</dim>
					<dim>224</dim>
					<dim>2</dim>
					<dim>3</dim>
				</port>
			</input>
			<output>
				<port id="1">
					<dim>1</dim>
					<dim>224</dim>
					<dim>2</dim>
					<dim>3</dim>
				</port>
			</output>
		</layer>
		<layer name="conv9_1" type="Convolution" precision="FP32" id="89">
			<data dilations="1,1" group="1" kernel="1,1" output="64" pads_begin="0,0" pads_end="0,0" quantization_level="I8" strides="1,1" />
			<input>
				<port id="0">
					<dim>1</dim>
					<dim>224</dim>
					<dim>2</dim>
					<dim>3</dim>
				</port>
			</input>
			<output>
				<port id="1">
					<dim>1</dim>
					<dim>64</dim>
					<dim>2</dim>
					<dim>3</dim>
				</port>
			</output>
			<blobs>
				<biases offset="3128260" size="256" />
				<weights offset="3128516" size="57344" />
			</blobs>
		</layer>
		<layer name="relu9_1" type="ReLU" precision="FP32" id="90">
			<data negative_slope="0.0" />
			<input>
				<port id="0">
					<dim>1</dim>
					<dim>64</dim>
					<dim>2</dim>
					<dim>3</dim>
				</port>
			</input>
			<output>
				<port id="1">
					<dim>1</dim>
					<dim>64</dim>
					<dim>2</dim>
					<dim>3</dim>
				</port>
			</output>
		</layer>
		<layer name="conv9_2/dw" type="Convolution" precision="FP32" id="91">
			<data dilations="1,1" group="64" kernel="3,3" output="64" pads_begin="1,1" pads_end="1,1" quantization_level="I8" strides="2,2" />
			<input>
				<port id="0">
					<dim>1</dim>
					<dim>64</dim>
					<dim>2</dim>
					<dim>3</dim>
				</port>
			</input>
			<output>
				<port id="1">
					<dim>1</dim>
					<dim>64</dim>
					<dim>1</dim>
					<dim>2</dim>
				</port>
			</output>
			<blobs>
				<biases offset="3185860" size="256" />
				<weights offset="3186116" size="2304" />
			</blobs>
		</layer>
		<layer name="relu9_2/dw" type="ReLU" precision="FP32" id="92">
			<data negative_slope="0.0" />
			<input>
				<port id="0">
					<dim>1</dim>
					<dim>64</dim>
					<dim>1</dim>
					<dim>2</dim>
				</port>
			</input>
			<output>
				<port id="1">
					<dim>1</dim>
					<dim>64</dim>
					<dim>1</dim>
					<dim>2</dim>
				</port>
			</output>
		</layer>
		<layer name="conv9_2" type="Convolution" precision="FP32" id="93">
			<data dilations="1,1" group="1" kernel="1,1" output="128" pads_begin="0,0" pads_end="0,0" quantization_level="I8" strides="1,1" />
			<input>
				<port id="0">
					<dim>1</dim>
					<dim>64</dim>
					<dim>1</dim>
					<dim>2</dim>
				</port>
			</input>
			<output>
				<port id="1">
					<dim>1</dim>
					<dim>128</dim>
					<dim>1</dim>
					<dim>2</dim>
				</port>
			</output>
			<blobs>
				<biases offset="3188420" size="512" />
				<weights offset="3188932" size="32768" />
			</blobs>
		</layer>
		<layer name="relu9_2" type="ReLU" precision="FP32" id="94">
			<data negative_slope="0.0" />
			<input>
				<port id="0">
					<dim>1</dim>
					<dim>128</dim>
					<dim>1</dim>
					<dim>2</dim>
				</port>
			</input>
			<output>
				<port id="1">
					<dim>1</dim>
					<dim>128</dim>
					<dim>1</dim>
					<dim>2</dim>
				</port>
			</output>
		</layer>
		<layer name="conv9_2_mbox_priorbox" type="PriorBox" precision="FP32" id="95">
			<data aspect_ratio="2.0" clip="0" flip="1" max_size="403.20001220703125" min_size="345.6000061035156" offset="0.5" variance="0.10000000149011612,0.10000000149011612,0.20000000298023224,0.20000000298023224" />
			<input>
				<port id="0">
					<dim>1</dim>
					<dim>128</dim>
					<dim>1</dim>
					<dim>2</dim>
				</port>
				<port id="1">
					<dim>1</dim>
					<dim>3</dim>
					<dim>384</dim>
					<dim>672</dim>
				</port>
			</input>
			<output>
				<port id="2">
					<dim>1</dim>
					<dim>2</dim>
					<dim>32</dim>
				</port>
			</output>
		</layer>
		<layer name="conv9_2_mbox_loc" type="Convolution" precision="FP32" id="96">
			<data dilations="1,1" group="1" kernel="3,3" output="16" pads_begin="1,1" pads_end="1,1" quantization_level="I8" strides="1,1" />
			<input>
				<port id="0">
					<dim>1</dim>
					<dim>128</dim>
					<dim>1</dim>
					<dim>2</dim>
				</port>
			</input>
			<output>
				<port id="1">
					<dim>1</dim>
					<dim>16</dim>
					<dim>1</dim>
					<dim>2</dim>
				</port>
			</output>
			<blobs>
				<biases offset="3221700" size="64" />
				<weights offset="3221764" size="73728" />
			</blobs>
		</layer>
		<layer name="conv9_2_mbox_loc_perm" type="Permute" precision="FP32" id="97">
			<data order="0,2,3,1" />
			<input>
				<port id="0">
					<dim>1</dim>
					<dim>16</dim>
					<dim>1</dim>
					<dim>2</dim>
				</port>
			</input>
			<output>
				<port id="1">
					<dim>1</dim>
					<dim>1</dim>
					<dim>2</dim>
					<dim>16</dim>
				</port>
			</output>
		</layer>
		<layer name="conv9_2_mbox_loc_flat" type="Flatten" precision="FP32" id="98">
			<data axis="1" end_axis="-1" />
			<input>
				<port id="0">
					<dim>1</dim>
					<dim>1</dim>
					<dim>2</dim>
					<dim>16</dim>
				</port>
			</input>
			<output>
				<port id="1">
					<dim>1</dim>
					<dim>32</dim>
				</port>
			</output>
		</layer>
		<layer name="conv9_2_mbox_conf" type="Convolution" precision="FP32" id="99">
			<data dilations="1,1" group="1" kernel="3,3" output="8" pads_begin="1,1" pads_end="1,1" quantization_level="I8" strides="1,1" />
			<input>
				<port id="0">
					<dim>1</dim>
					<dim>128</dim>
					<dim>1</dim>
					<dim>2</dim>
				</port>
			</input>
			<output>
				<port id="1">
					<dim>1</dim>
					<dim>8</dim>
					<dim>1</dim>
					<dim>2</dim>
				</port>
			</output>
			<blobs>
				<biases offset="3295492" size="32" />
				<weights offset="3295524" size="36864" />
			</blobs>
		</layer>
		<layer name="conv9_2_mbox_conf_perm" type="Permute" precision="FP32" id="100">
			<data order="0,2,3,1" />
			<input>
				<port id="0">
					<dim>1</dim>
					<dim>8</dim>
					<dim>1</dim>
					<dim>2</dim>
				</port>
			</input>
			<output>
				<port id="1">
					<dim>1</dim>
					<dim>1</dim>
					<dim>2</dim>
					<dim>8</dim>
				</port>
			</output>
		</layer>
		<layer name="conv9_2_mbox_conf_flat" type="Flatten" precision="FP32" id="101">
			<data axis="1" end_axis="-1" />
			<input>
				<port id="0">
					<dim>1</dim>
					<dim>1</dim>
					<dim>2</dim>
					<dim>8</dim>
				</port>
			</input>
			<output>
				<port id="1">
					<dim>1</dim>
					<dim>16</dim>
				</port>
			</output>
		</layer>
		<layer name="conv8_2_mbox_priorbox" type="PriorBox" precision="FP32" id="102">
			<data aspect_ratio="2.0" clip="0" flip="1" max_size="345.6000061035156" min_size="288.0" offset="0.5" variance="0.10000000149011612,0.10000000149011612,0.20000000298023224,0.20000000298023224" />
			<input>
				<port id="0">
					<dim>1</dim>
					<dim>224</dim>
					<dim>2</dim>
					<dim>3</dim>
				</port>
				<port id="1">
					<dim>1</dim>
					<dim>3</dim>
					<dim>384</dim>
					<dim>672</dim>
				</port>
			</input>
			<output>
				<port id="2">
					<dim>1</dim>
					<dim>2</dim>
					<dim>96</dim>
				</port>
			</output>
		</layer>
		<layer name="conv8_2_mbox_loc" type="Convolution" precision="FP32" id="103">
			<data dilations="1,1" group="1" kernel="3,3" output="16" pads_begin="1,1" pads_end="1,1" quantization_level="I8" strides="1,1" />
			<input>
				<port id="0">
					<dim>1</dim>
					<dim>224</dim>
					<dim>2</dim>
					<dim>3</dim>
				</port>
			</input>
			<output>
				<port id="1">
					<dim>1</dim>
					<dim>16</dim>
					<dim>2</dim>
					<dim>3</dim>
				</port>
			</output>
			<blobs>
				<biases offset="3332388" size="64" />
				<weights offset="3332452" size="129024" />
			</blobs>
		</layer>
		<layer name="conv8_2_mbox_loc_perm" type="Permute" precision="FP32" id="104">
			<data order="0,2,3,1" />
			<input>
				<port id="0">
					<dim>1</dim>
					<dim>16</dim>
					<dim>2</dim>
					<dim>3</dim>
				</port>
			</input>
			<output>
				<port id="1">
					<dim>1</dim>
					<dim>2</dim>
					<dim>3</dim>
					<dim>16</dim>
				</port>
			</output>
		</layer>
		<layer name="conv8_2_mbox_loc_flat" type="Flatten" precision="FP32" id="105">
			<data axis="1" end_axis="-1" />
			<input>
				<port id="0">
					<dim>1</dim>
					<dim>2</dim>
					<dim>3</dim>
					<dim>16</dim>
				</port>
			</input>
			<output>
				<port id="1">
					<dim>1</dim>
					<dim>96</dim>
				</port>
			</output>
		</layer>
		<layer name="conv8_2_mbox_conf" type="Convolution" precision="FP32" id="106">
			<data dilations="1,1" group="1" kernel="3,3" output="8" pads_begin="1,1" pads_end="1,1" quantization_level="I8" strides="1,1" />
			<input>
				<port id="0">
					<dim>1</dim>
					<dim>224</dim>
					<dim>2</dim>
					<dim>3</dim>
				</port>
			</input>
			<output>
				<port id="1">
					<dim>1</dim>
					<dim>8</dim>
					<dim>2</dim>
					<dim>3</dim>
				</port>
			</output>
			<blobs>
				<biases offset="3461476" size="32" />
				<weights offset="3461508" size="64512" />
			</blobs>
		</layer>
		<layer name="conv8_2_mbox_conf_perm" type="Permute" precision="FP32" id="107">
			<data order="0,2,3,1" />
			<input>
				<port id="0">
					<dim>1</dim>
					<dim>8</dim>
					<dim>2</dim>
					<dim>3</dim>
				</port>
			</input>
			<output>
				<port id="1">
					<dim>1</dim>
					<dim>2</dim>
					<dim>3</dim>
					<dim>8</dim>
				</port>
			</output>
		</layer>
		<layer name="conv8_2_mbox_conf_flat" type="Flatten" precision="FP32" id="108">
			<data axis="1" end_axis="-1" />
			<input>
				<port id="0">
					<dim>1</dim>
					<dim>2</dim>
					<dim>3</dim>
					<dim>8</dim>
				</port>
			</input>
			<output>
				<port id="1">
					<dim>1</dim>
					<dim>48</dim>
				</port>
			</output>
		</layer>
		<layer name="conv7_2_mbox_priorbox" type="PriorBox" precision="FP32" id="109">
			<data aspect_ratio="2.0,3.0" clip="0" flip="1" max_size="288.0" min_size="230.39999389648438" offset="0.5" step="128.0" variance="0.10000000149011612,0.10000000149011612,0.20000000298023224,0.20000000298023224" />
			<input>
				<port id="0">
					<dim>1</dim>
					<dim>200</dim>
					<dim>3</dim>
					<dim>6</dim>
				</port>
				<port id="1">
					<dim>1</dim>
					<dim>3</dim>
					<dim>384</dim>
					<dim>672</dim>
				</port>
			</input>
			<output>
				<port id="2">
					<dim>1</dim>
					<dim>2</dim>
					<dim>432</dim>
				</port>
			</output>
		</layer>
		<layer name="conv7_2_mbox_loc" type="Convolution" precision="FP32" id="110">
			<data dilations="1,1" group="1" kernel="3,3" output="24" pads_begin="1,1" pads_end="1,1" quantization_level="I8" strides="1,1" />
			<input>
				<port id="0">
					<dim>1</dim>
					<dim>200</dim>
					<dim>3</dim>
					<dim>6</dim>
				</port>
			</input>
			<output>
				<port id="1">
					<dim>1</dim>
					<dim>24</dim>
					<dim>3</dim>
					<dim>6</dim>
				</port>
			</output>
			<blobs>
				<biases offset="3526020" size="96" />
				<weights offset="3526116" size="172800" />
			</blobs>
		</layer>
		<layer name="conv7_2_mbox_loc_perm" type="Permute" precision="FP32" id="111">
			<data order="0,2,3,1" />
			<input>
				<port id="0">
					<dim>1</dim>
					<dim>24</dim>
					<dim>3</dim>
					<dim>6</dim>
				</port>
			</input>
			<output>
				<port id="1">
					<dim>1</dim>
					<dim>3</dim>
					<dim>6</dim>
					<dim>24</dim>
				</port>
			</output>
		</layer>
		<layer name="conv7_2_mbox_loc_flat" type="Flatten" precision="FP32" id="112">
			<data axis="1" end_axis="-1" />
			<input>
				<port id="0">
					<dim>1</dim>
					<dim>3</dim>
					<dim>6</dim>
					<dim>24</dim>
				</port>
			</input>
			<output>
				<port id="1">
					<dim>1</dim>
					<dim>432</dim>
				</port>
			</output>
		</layer>
		<layer name="conv7_2_mbox_conf" type="Convolution" precision="FP32" id="113">
			<data dilations="1,1" group="1" kernel="3,3" output="12" pads_begin="1,1" pads_end="1,1" quantization_level="I8" strides="1,1" />
			<input>
				<port id="0">
					<dim>1</dim>
					<dim>200</dim>
					<dim>3</dim>
					<dim>6</dim>
				</port>
			</input>
			<output>
				<port id="1">
					<dim>1</dim>
					<dim>12</dim>
					<dim>3</dim>
					<dim>6</dim>
				</port>
			</output>
			<blobs>
				<biases offset="3698916" size="48" />
				<weights offset="3698964" size="86400" />
			</blobs>
		</layer>
		<layer name="conv7_2_mbox_conf_perm" type="Permute" precision="FP32" id="114">
			<data order="0,2,3,1" />
			<input>
				<port id="0">
					<dim>1</dim>
					<dim>12</dim>
					<dim>3</dim>
					<dim>6</dim>
				</port>
			</input>
			<output>
				<port id="1">
					<dim>1</dim>
					<dim>3</dim>
					<dim>6</dim>
					<dim>12</dim>
				</port>
			</output>
		</layer>
		<layer name="conv7_2_mbox_conf_flat" type="Flatten" precision="FP32" id="115">
			<data axis="1" end_axis="-1" />
			<input>
				<port id="0">
					<dim>1</dim>
					<dim>3</dim>
					<dim>6</dim>
					<dim>12</dim>
				</port>
			</input>
			<output>
				<port id="1">
					<dim>1</dim>
					<dim>216</dim>
				</port>
			</output>
		</layer>
		<layer name="conv6_2_mbox_priorbox" type="PriorBox" precision="FP32" id="116">
			<data aspect_ratio="2.0,3.0" clip="0" flip="1" max_size="230.39999389648438" min_size="172.8000030517578" offset="0.5" step="64.0" variance="0.10000000149011612,0.10000000149011612,0.20000000298023224,0.20000000298023224" />
			<input>
				<port id="0">
					<dim>1</dim>
					<dim>152</dim>
					<dim>6</dim>
					<dim>11</dim>
				</port>
				<port id="1">
					<dim>1</dim>
					<dim>3</dim>
					<dim>384</dim>
					<dim>672</dim>
				</port>
			</input>
			<output>
				<port id="2">
					<dim>1</dim>
					<dim>2</dim>
					<dim>1584</dim>
				</port>
			</output>
		</layer>
		<layer name="conv6_2_mbox_loc" type="Convolution" precision="FP32" id="117">
			<data dilations="1,1" group="1" kernel="3,3" output="24" pads_begin="1,1" pads_end="1,1" quantization_level="I8" strides="1,1" />
			<input>
				<port id="0">
					<dim>1</dim>
					<dim>152</dim>
					<dim>6</dim>
					<dim>11</dim>
				</port>
			</input>
			<output>
				<port id="1">
					<dim>1</dim>
					<dim>24</dim>
					<dim>6</dim>
					<dim>11</dim>
				</port>
			</output>
			<blobs>
				<biases offset="3785364" size="96" />
				<weights offset="3785460" size="131328" />
			</blobs>
		</layer>
		<layer name="conv6_2_mbox_loc_perm" type="Permute" precision="FP32" id="118">
			<data order="0,2,3,1" />
			<input>
				<port id="0">
					<dim>1</dim>
					<dim>24</dim>
					<dim>6</dim>
					<dim>11</dim>
				</port>
			</input>
			<output>
				<port id="1">
					<dim>1</dim>
					<dim>6</dim>
					<dim>11</dim>
					<dim>24</dim>
				</port>
			</output>
		</layer>
		<layer name="conv6_2_mbox_loc_flat" type="Flatten" precision="FP32" id="119">
			<data axis="1" end_axis="-1" />
			<input>
				<port id="0">
					<dim>1</dim>
					<dim>6</dim>
					<dim>11</dim>
					<dim>24</dim>
				</port>
			</input>
			<output>
				<port id="1">
					<dim>1</dim>
					<dim>1584</dim>
				</port>
			</output>
		</layer>
		<layer name="conv6_2_mbox_conf" type="Convolution" precision="FP32" id="120">
			<data dilations="1,1" group="1" kernel="3,3" output="12" pads_begin="1,1" pads_end="1,1" quantization_level="I8" strides="1,1" />
			<input>
				<port id="0">
					<dim>1</dim>
					<dim>152</dim>
					<dim>6</dim>
					<dim>11</dim>
				</port>
			</input>
			<output>
				<port id="1">
					<dim>1</dim>
					<dim>12</dim>
					<dim>6</dim>
					<dim>11</dim>
				</port>
			</output>
			<blobs>
				<biases offset="3916788" size="48" />
				<weights offset="3916836" size="65664" />
			</blobs>
		</layer>
		<layer name="conv6_2_mbox_conf_perm" type="Permute" precision="FP32" id="121">
			<data order="0,2,3,1" />
			<input>
				<port id="0">
					<dim>1</dim>
					<dim>12</dim>
					<dim>6</dim>
					<dim>11</dim>
				</port>
			</input>
			<output>
				<port id="1">
					<dim>1</dim>
					<dim>6</dim>
					<dim>11</dim>
					<dim>12</dim>
				</port>
			</output>
		</layer>
		<layer name="conv6_2_mbox_conf_flat" type="Flatten" precision="FP32" id="122">
			<data axis="1" end_axis="-1" />
			<input>
				<port id="0">
					<dim>1</dim>
					<dim>6</dim>
					<dim>11</dim>
					<dim>12</dim>
				</port>
			</input>
			<output>
				<port id="1">
					<dim>1</dim>
					<dim>792</dim>
				</port>
			</output>
		</layer>
		<layer name="conv4_3_norm_mbox_priorbox" type="PriorBox" precision="FP32" id="123">
			<data aspect_ratio="2.0" clip="0" flip="1" max_size="76.80000305175781" min_size="38.400001525878906" offset="0.5" step="16.0" variance="0.10000000149011612,0.10000000149011612,0.20000000298023224,0.20000000298023224" />
			<input>
				<port id="0">
					<dim>1</dim>
					<dim>192</dim>
					<dim>24</dim>
					<dim>42</dim>
				</port>
				<port id="1">
					<dim>1</dim>
					<dim>3</dim>
					<dim>384</dim>
					<dim>672</dim>
				</port>
			</input>
			<output>
				<port id="2">
					<dim>1</dim>
					<dim>2</dim>
					<dim>16128</dim>
				</port>
			</output>
		</layer>
		<layer name="conv4_3_norm_mbox_loc" type="Convolution" precision="FP32" id="124">
			<data dilations="1,1" group="1" kernel="3,3" output="16" pads_begin="1,1" pads_end="1,1" quantization_level="I8" strides="1,1" />
			<input>
				<port id="0">
					<dim>1</dim>
					<dim>192</dim>
					<dim>24</dim>
					<dim>42</dim>
				</port>
			</input>
			<output>
				<port id="1">
					<dim>1</dim>
					<dim>16</dim>
					<dim>24</dim>
					<dim>42</dim>
				</port>
			</output>
			<blobs>
				<biases offset="3982500" size="64" />
				<weights offset="3982564" size="110592" />
			</blobs>
		</layer>
		<layer name="conv4_3_norm_mbox_loc_perm" type="Permute" precision="FP32" id="125">
			<data order="0,2,3,1" />
			<input>
				<port id="0">
					<dim>1</dim>
					<dim>16</dim>
					<dim>24</dim>
					<dim>42</dim>
				</port>
			</input>
			<output>
				<port id="1">
					<dim>1</dim>
					<dim>24</dim>
					<dim>42</dim>
					<dim>16</dim>
				</port>
			</output>
		</layer>
		<layer name="conv4_3_norm_mbox_loc_flat" type="Flatten" precision="FP32" id="126">
			<data axis="1" end_axis="-1" />
			<input>
				<port id="0">
					<dim>1</dim>
					<dim>24</dim>
					<dim>42</dim>
					<dim>16</dim>
				</port>
			</input>
			<output>
				<port id="1">
					<dim>1</dim>
					<dim>16128</dim>
				</port>
			</output>
		</layer>
		<layer name="conv4_3_norm_mbox_conf" type="Convolution" precision="FP32" id="127">
			<data dilations="1,1" group="1" kernel="3,3" output="8" pads_begin="1,1" pads_end="1,1" quantization_level="I8" strides="1,1" />
			<input>
				<port id="0">
					<dim>1</dim>
					<dim>192</dim>
					<dim>24</dim>
					<dim>42</dim>
				</port>
			</input>
			<output>
				<port id="1">
					<dim>1</dim>
					<dim>8</dim>
					<dim>24</dim>
					<dim>42</dim>
				</port>
			</output>
			<blobs>
				<biases offset="4093156" size="32" />
				<weights offset="4093188" size="55296" />
			</blobs>
		</layer>
		<layer name="conv4_3_norm_mbox_conf_perm" type="Permute" precision="FP32" id="128">
			<data order="0,2,3,1" />
			<input>
				<port id="0">
					<dim>1</dim>
					<dim>8</dim>
					<dim>24</dim>
					<dim>42</dim>
				</port>
			</input>
			<output>
				<port id="1">
					<dim>1</dim>
					<dim>24</dim>
					<dim>42</dim>
					<dim>8</dim>
				</port>
			</output>
		</layer>
		<layer name="conv4_3_norm_mbox_conf_flat" type="Flatten" precision="FP32" id="129">
			<data axis="1" end_axis="-1" />
			<input>
				<port id="0">
					<dim>1</dim>
					<dim>24</dim>
					<dim>42</dim>
					<dim>8</dim>
				</port>
			</input>
			<output>
				<port id="1">
					<dim>1</dim>
					<dim>8064</dim>
				</port>
			</output>
		</layer>
		<layer name="conv4_3_0_norm_mbox_priorbox" type="PriorBox" precision="FP32" id="130">
			<data aspect_ratio="2.0" clip="0" flip="1" max_size="38.400001525878906" min_size="16.0" offset="0.5" step="16.0" variance="0.10000000149011612,0.10000000149011612,0.20000000298023224,0.20000000298023224" />
			<input>
				<port id="0">
					<dim>1</dim>
					<dim>192</dim>
					<dim>24</dim>
					<dim>42</dim>
				</port>
				<port id="1">
					<dim>1</dim>
					<dim>3</dim>
					<dim>384</dim>
					<dim>672</dim>
				</port>
			</input>
			<output>
				<port id="2">
					<dim>1</dim>
					<dim>2</dim>
					<dim>16128</dim>
				</port>
			</output>
		</layer>
		<layer name="mbox_priorbox" type="Concat" precision="FP32" id="131">
			<data axis="2" />
			<input>
				<port id="0">
					<dim>1</dim>
					<dim>2</dim>
					<dim>16128</dim>
				</port>
				<port id="1">
					<dim>1</dim>
					<dim>2</dim>
					<dim>16128</dim>
				</port>
				<port id="2">
					<dim>1</dim>
					<dim>2</dim>
					<dim>6048</dim>
				</port>
				<port id="3">
					<dim>1</dim>
					<dim>2</dim>
					<dim>6048</dim>
				</port>
				<port id="4">
					<dim>1</dim>
					<dim>2</dim>
					<dim>1584</dim>
				</port>
				<port id="5">
					<dim>1</dim>
					<dim>2</dim>
					<dim>432</dim>
				</port>
				<port id="6">
					<dim>1</dim>
					<dim>2</dim>
					<dim>96</dim>
				</port>
				<port id="7">
					<dim>1</dim>
					<dim>2</dim>
					<dim>32</dim>
				</port>
			</input>
			<output>
				<port id="8">
					<dim>1</dim>
					<dim>2</dim>
					<dim>46496</dim>
				</port>
			</output>
		</layer>
		<layer name="conv4_3_0_norm_mbox_loc" type="Convolution" precision="FP32" id="132">
			<data dilations="1,1" group="1" kernel="3,3" output="16" pads_begin="1,1" pads_end="1,1" quantization_level="I8" strides="1,1" />
			<input>
				<port id="0">
					<dim>1</dim>
					<dim>192</dim>
					<dim>24</dim>
					<dim>42</dim>
				</port>
			</input>
			<output>
				<port id="1">
					<dim>1</dim>
					<dim>16</dim>
					<dim>24</dim>
					<dim>42</dim>
				</port>
			</output>
			<blobs>
				<biases offset="4148484" size="64" />
				<weights offset="4148548" size="110592" />
			</blobs>
		</layer>
		<layer name="conv4_3_0_norm_mbox_loc_perm" type="Permute" precision="FP32" id="133">
			<data order="0,2,3,1" />
			<input>
				<port id="0">
					<dim>1</dim>
					<dim>16</dim>
					<dim>24</dim>
					<dim>42</dim>
				</port>
			</input>
			<output>
				<port id="1">
					<dim>1</dim>
					<dim>24</dim>
					<dim>42</dim>
					<dim>16</dim>
				</port>
			</output>
		</layer>
		<layer name="conv4_3_0_norm_mbox_loc_flat" type="Flatten" precision="FP32" id="134">
			<data axis="1" end_axis="-1" />
			<input>
				<port id="0">
					<dim>1</dim>
					<dim>24</dim>
					<dim>42</dim>
					<dim>16</dim>
				</port>
			</input>
			<output>
				<port id="1">
					<dim>1</dim>
					<dim>16128</dim>
				</port>
			</output>
		</layer>
		<layer name="mbox_loc" type="Concat" precision="FP32" id="135">
			<data axis="1" />
			<input>
				<port id="0">
					<dim>1</dim>
					<dim>16128</dim>
				</port>
				<port id="1">
					<dim>1</dim>
					<dim>16128</dim>
				</port>
				<port id="2">
					<dim>1</dim>
					<dim>6048</dim>
				</port>
				<port id="3">
					<dim>1</dim>
					<dim>6048</dim>
				</port>
				<port id="4">
					<dim>1</dim>
					<dim>1584</dim>
				</port>
				<port id="5">
					<dim>1</dim>
					<dim>432</dim>
				</port>
				<port id="6">
					<dim>1</dim>
					<dim>96</dim>
				</port>
				<port id="7">
					<dim>1</dim>
					<dim>32</dim>
				</port>
			</input>
			<output>
				<port id="8">
					<dim>1</dim>
					<dim>46496</dim>
				</port>
			</output>
		</layer>
		<layer name="conv4_3_0_norm_mbox_conf" type="Convolution" precision="FP32" id="136">
			<data dilations="1,1" group="1" kernel="3,3" output="8" pads_begin="1,1" pads_end="1,1" quantization_level="I8" strides="1,1" />
			<input>
				<port id="0">
					<dim>1</dim>
					<dim>192</dim>
					<dim>24</dim>
					<dim>42</dim>
				</port>
			</input>
			<output>
				<port id="1">
					<dim>1</dim>
					<dim>8</dim>
					<dim>24</dim>
					<dim>42</dim>
				</port>
			</output>
			<blobs>
				<biases offset="4259140" size="32" />
				<weights offset="4259172" size="55296" />
			</blobs>
		</layer>
		<layer name="conv4_3_0_norm_mbox_conf_perm" type="Permute" precision="FP32" id="137">
			<data order="0,2,3,1" />
			<input>
				<port id="0">
					<dim>1</dim>
					<dim>8</dim>
					<dim>24</dim>
					<dim>42</dim>
				</port>
			</input>
			<output>
				<port id="1">
					<dim>1</dim>
					<dim>24</dim>
					<dim>42</dim>
					<dim>8</dim>
				</port>
			</output>
		</layer>
		<layer name="conv4_3_0_norm_mbox_conf_flat" type="Flatten" precision="FP32" id="138">
			<data axis="1" end_axis="-1" />
			<input>
				<port id="0">
					<dim>1</dim>
					<dim>24</dim>
					<dim>42</dim>
					<dim>8</dim>
				</port>
			</input>
			<output>
				<port id="1">
					<dim>1</dim>
					<dim>8064</dim>
				</port>
			</output>
		</layer>
		<layer name="mbox_conf" type="Concat" precision="FP32" id="139">
			<data axis="1" />
			<input>
				<port id="0">
					<dim>1</dim>
					<dim>8064</dim>
				</port>
				<port id="1">
					<dim>1</dim>
					<dim>8064</dim>
				</port>
				<port id="2">
					<dim>1</dim>
					<dim>3024</dim>
				</port>
				<port id="3">
					<dim>1</dim>
					<dim>3024</dim>
				</port>
				<port id="4">
					<dim>1</dim>
					<dim>792</dim>
				</port>
				<port id="5">
					<dim>1</dim>
					<dim>216</dim>
				</port>
				<port id="6">
					<dim>1</dim>
					<dim>48</dim>
				</port>
				<port id="7">
					<dim>1</dim>
					<dim>16</dim>
				</port>
			</input>
			<output>
				<port id="8">
					<dim>1</dim>
					<dim>23248</dim>
				</port>
			</output>
		</layer>
		<layer name="mbox_conf_reshape" type="Reshape" precision="FP32" id="140">
			<data axis="0" dim="" num_axes="-1" />
			<input>
				<port id="0">
					<dim>1</dim>
					<dim>23248</dim>
				</port>
				<port id="1">
					<dim>3</dim>
				</port>
			</input>
			<output>
				<port id="2">
					<dim>1</dim>
					<dim>11624</dim>
					<dim>2</dim>
				</port>
			</output>
		</layer>
		<layer name="mbox_conf_softmax" type="SoftMax" precision="FP32" id="141">
			<data axis="2" />
			<input>
				<port id="0">
					<dim>1</dim>
					<dim>11624</dim>
					<dim>2</dim>
				</port>
			</input>
			<output>
				<port id="1">
					<dim>1</dim>
					<dim>11624</dim>
					<dim>2</dim>
				</port>
			</output>
		</layer>
		<layer name="mbox_conf_flatten" type="Flatten" precision="FP32" id="142">
			<data axis="1" end_axis="-1" />
			<input>
				<port id="0">
					<dim>1</dim>
					<dim>11624</dim>
					<dim>2</dim>
				</port>
			</input>
			<output>
				<port id="1">
					<dim>1</dim>
					<dim>23248</dim>
				</port>
			</output>
		</layer>
		<layer name="detection_out" type="DetectionOutput" precision="FP32" id="143">
			<data background_label_id="0" code_type="caffe.PriorBoxParameter.CENTER_SIZE" confidence_threshold="0.009999999776482582" eta="1.0" input_height="1" input_width="1" keep_top_k="200" nms_threshold="0.44999998807907104" normalized="1" num_classes="2" share_location="1" top_k="400" variance_encoded_in_target="0" visualize="False" />
			<input>
				<port id="0">
					<dim>1</dim>
					<dim>46496</dim>
				</port>
				<port id="1">
					<dim>1</dim>
					<dim>23248</dim>
				</port>
				<port id="2">
					<dim>1</dim>
					<dim>2</dim>
					<dim>46496</dim>
				</port>
			</input>
			<output>
				<port id="3">
					<dim>1</dim>
					<dim>1</dim>
					<dim>200</dim>
					<dim>7</dim>
				</port>
			</output>
		</layer>
	</layers>
	<edges>
		<edge from-layer="0" from-port="0" to-layer="140" to-port="1" />
		<edge from-layer="1" from-port="0" to-layer="2" to-port="0" />
		<edge from-layer="2" from-port="1" to-layer="3" to-port="0" />
		<edge from-layer="2" from-port="1" to-layer="130" to-port="1" />
		<edge from-layer="2" from-port="1" to-layer="123" to-port="1" />
		<edge from-layer="2" from-port="1" to-layer="116" to-port="1" />
		<edge from-layer="2" from-port="1" to-layer="109" to-port="1" />
		<edge from-layer="2" from-port="1" to-layer="102" to-port="1" />
		<edge from-layer="2" from-port="1" to-layer="95" to-port="1" />
		<edge from-layer="2" from-port="1" to-layer="64" to-port="1" />
		<edge from-layer="2" from-port="1" to-layer="57" to-port="1" />
		<edge from-layer="3" from-port="1" to-layer="4" to-port="0" />
		<edge from-layer="4" from-port="1" to-layer="5" to-port="0" />
		<edge from-layer="5" from-port="1" to-layer="6" to-port="0" />
		<edge from-layer="6" from-port="1" to-layer="7" to-port="0" />
		<edge from-layer="7" from-port="1" to-layer="8" to-port="0" />
		<edge from-layer="8" from-port="1" to-layer="9" to-port="0" />
		<edge from-layer="9" from-port="1" to-layer="10" to-port="0" />
		<edge from-layer="10" from-port="1" to-layer="11" to-port="0" />
		<edge from-layer="11" from-port="1" to-layer="12" to-port="0" />
		<edge from-layer="12" from-port="1" to-layer="13" to-port="0" />
		<edge from-layer="13" from-port="1" to-layer="14" to-port="0" />
		<edge from-layer="14" from-port="1" to-layer="15" to-port="0" />
		<edge from-layer="15" from-port="1" to-layer="16" to-port="0" />
		<edge from-layer="16" from-port="1" to-layer="17" to-port="0" />
		<edge from-layer="17" from-port="1" to-layer="18" to-port="0" />
		<edge from-layer="18" from-port="1" to-layer="19" to-port="0" />
		<edge from-layer="19" from-port="1" to-layer="20" to-port="0" />
		<edge from-layer="20" from-port="1" to-layer="21" to-port="0" />
		<edge from-layer="21" from-port="1" to-layer="22" to-port="0" />
		<edge from-layer="22" from-port="1" to-layer="23" to-port="0" />
		<edge from-layer="23" from-port="1" to-layer="24" to-port="0" />
		<edge from-layer="24" from-port="1" to-layer="25" to-port="0" />
		<edge from-layer="25" from-port="1" to-layer="26" to-port="0" />
		<edge from-layer="26" from-port="1" to-layer="27" to-port="0" />
		<edge from-layer="27" from-port="1" to-layer="28" to-port="0" />
		<edge from-layer="28" from-port="1" to-layer="29" to-port="0" />
		<edge from-layer="29" from-port="1" to-layer="30" to-port="0" />
		<edge from-layer="30" from-port="1" to-layer="31" to-port="0" />
		<edge from-layer="31" from-port="1" to-layer="32" to-port="0" />
		<edge from-layer="32" from-port="1" to-layer="33" to-port="0" />
		<edge from-layer="33" from-port="1" to-layer="34" to-port="0" />
		<edge from-layer="34" from-port="1" to-layer="35" to-port="0" />
		<edge from-layer="35" from-port="1" to-layer="36" to-port="0" />
		<edge from-layer="36" from-port="1" to-layer="37" to-port="0" />
		<edge from-layer="37" from-port="1" to-layer="38" to-port="0" />
		<edge from-layer="38" from-port="1" to-layer="39" to-port="0" />
		<edge from-layer="39" from-port="1" to-layer="40" to-port="0" />
		<edge from-layer="40" from-port="1" to-layer="41" to-port="0" />
		<edge from-layer="41" from-port="1" to-layer="42" to-port="0" />
		<edge from-layer="42" from-port="1" to-layer="43" to-port="0" />
		<edge from-layer="43" from-port="1" to-layer="44" to-port="0" />
		<edge from-layer="44" from-port="1" to-layer="45" to-port="0" />
		<edge from-layer="45" from-port="1" to-layer="46" to-port="0" />
		<edge from-layer="46" from-port="1" to-layer="47" to-port="0" />
		<edge from-layer="47" from-port="1" to-layer="48" to-port="0" />
		<edge from-layer="48" from-port="1" to-layer="136" to-port="0" />
		<edge from-layer="48" from-port="1" to-layer="132" to-port="0" />
		<edge from-layer="48" from-port="1" to-layer="130" to-port="0" />
		<edge from-layer="48" from-port="1" to-layer="127" to-port="0" />
		<edge from-layer="48" from-port="1" to-layer="124" to-port="0" />
		<edge from-layer="48" from-port="1" to-layer="123" to-port="0" />
		<edge from-layer="48" from-port="1" to-layer="49" to-port="0" />
		<edge from-layer="49" from-port="1" to-layer="50" to-port="0" />
		<edge from-layer="50" from-port="1" to-layer="51" to-port="0" />
		<edge from-layer="51" from-port="1" to-layer="52" to-port="0" />
		<edge from-layer="52" from-port="1" to-layer="53" to-port="0" />
		<edge from-layer="53" from-port="1" to-layer="54" to-port="0" />
		<edge from-layer="54" from-port="1" to-layer="55" to-port="0" />
		<edge from-layer="55" from-port="1" to-layer="56" to-port="0" />
		<edge from-layer="56" from-port="1" to-layer="71" to-port="0" />
		<edge from-layer="56" from-port="1" to-layer="68" to-port="0" />
		<edge from-layer="56" from-port="1" to-layer="65" to-port="0" />
		<edge from-layer="56" from-port="1" to-layer="64" to-port="0" />
		<edge from-layer="56" from-port="1" to-layer="61" to-port="0" />
		<edge from-layer="56" from-port="1" to-layer="58" to-port="0" />
		<edge from-layer="56" from-port="1" to-layer="57" to-port="0" />
		<edge from-layer="57" from-port="2" to-layer="131" to-port="3" />
		<edge from-layer="58" from-port="1" to-layer="59" to-port="0" />
		<edge from-layer="59" from-port="1" to-layer="60" to-port="0" />
		<edge from-layer="60" from-port="1" to-layer="135" to-port="3" />
		<edge from-layer="61" from-port="1" to-layer="62" to-port="0" />
		<edge from-layer="62" from-port="1" to-layer="63" to-port="0" />
		<edge from-layer="63" from-port="1" to-layer="139" to-port="3" />
		<edge from-layer="64" from-port="2" to-layer="131" to-port="2" />
		<edge from-layer="65" from-port="1" to-layer="66" to-port="0" />
		<edge from-layer="66" from-port="1" to-layer="67" to-port="0" />
		<edge from-layer="67" from-port="1" to-layer="135" to-port="2" />
		<edge from-layer="68" from-port="1" to-layer="69" to-port="0" />
		<edge from-layer="69" from-port="1" to-layer="70" to-port="0" />
		<edge from-layer="70" from-port="1" to-layer="139" to-port="2" />
		<edge from-layer="71" from-port="1" to-layer="72" to-port="0" />
		<edge from-layer="72" from-port="1" to-layer="73" to-port="0" />
		<edge from-layer="73" from-port="1" to-layer="74" to-port="0" />
		<edge from-layer="74" from-port="1" to-layer="75" to-port="0" />
		<edge from-layer="75" from-port="1" to-layer="76" to-port="0" />
		<edge from-layer="76" from-port="1" to-layer="120" to-port="0" />
		<edge from-layer="76" from-port="1" to-layer="117" to-port="0" />
		<edge from-layer="76" from-port="1" to-layer="116" to-port="0" />
		<edge from-layer="76" from-port="1" to-layer="77" to-port="0" />
		<edge from-layer="77" from-port="1" to-layer="78" to-port="0" />
		<edge from-layer="78" from-port="1" to-layer="79" to-port="0" />
		<edge from-layer="79" from-port="1" to-layer="80" to-port="0" />
		<edge from-layer="80" from-port="1" to-layer="81" to-port="0" />
		<edge from-layer="81" from-port="1" to-layer="82" to-port="0" />
		<edge from-layer="82" from-port="1" to-layer="113" to-port="0" />
		<edge from-layer="82" from-port="1" to-layer="110" to-port="0" />
		<edge from-layer="82" from-port="1" to-layer="109" to-port="0" />
		<edge from-layer="82" from-port="1" to-layer="83" to-port="0" />
		<edge from-layer="83" from-port="1" to-layer="84" to-port="0" />
		<edge from-layer="84" from-port="1" to-layer="85" to-port="0" />
		<edge from-layer="85" from-port="1" to-layer="86" to-port="0" />
		<edge from-layer="86" from-port="1" to-layer="87" to-port="0" />
		<edge from-layer="87" from-port="1" to-layer="88" to-port="0" />
		<edge from-layer="88" from-port="1" to-layer="106" to-port="0" />
		<edge from-layer="88" from-port="1" to-layer="103" to-port="0" />
		<edge from-layer="88" from-port="1" to-layer="102" to-port="0" />
		<edge from-layer="88" from-port="1" to-layer="89" to-port="0" />
		<edge from-layer="89" from-port="1" to-layer="90" to-port="0" />
		<edge from-layer="90" from-port="1" to-layer="91" to-port="0" />
		<edge from-layer="91" from-port="1" to-layer="92" to-port="0" />
		<edge from-layer="92" from-port="1" to-layer="93" to-port="0" />
		<edge from-layer="93" from-port="1" to-layer="94" to-port="0" />
		<edge from-layer="94" from-port="1" to-layer="99" to-port="0" />
		<edge from-layer="94" from-port="1" to-layer="96" to-port="0" />
		<edge from-layer="94" from-port="1" to-layer="95" to-port="0" />
		<edge from-layer="95" from-port="2" to-layer="131" to-port="7" />
		<edge from-layer="96" from-port="1" to-layer="97" to-port="0" />
		<edge from-layer="97" from-port="1" to-layer="98" to-port="0" />
		<edge from-layer="98" from-port="1" to-layer="135" to-port="7" />
		<edge from-layer="99" from-port="1" to-layer="100" to-port="0" />
		<edge from-layer="100" from-port="1" to-layer="101" to-port="0" />
		<edge from-layer="101" from-port="1" to-layer="139" to-port="7" />
		<edge from-layer="102" from-port="2" to-layer="131" to-port="6" />
		<edge from-layer="103" from-port="1" to-layer="104" to-port="0" />
		<edge from-layer="104" from-port="1" to-layer="105" to-port="0" />
		<edge from-layer="105" from-port="1" to-layer="135" to-port="6" />
		<edge from-layer="106" from-port="1" to-layer="107" to-port="0" />
		<edge from-layer="107" from-port="1" to-layer="108" to-port="0" />
		<edge from-layer="108" from-port="1" to-layer="139" to-port="6" />
		<edge from-layer="109" from-port="2" to-layer="131" to-port="5" />
		<edge from-layer="110" from-port="1" to-layer="111" to-port="0" />
		<edge from-layer="111" from-port="1" to-layer="112" to-port="0" />
		<edge from-layer="112" from-port="1" to-layer="135" to-port="5" />
		<edge from-layer="113" from-port="1" to-layer="114" to-port="0" />
		<edge from-layer="114" from-port="1" to-layer="115" to-port="0" />
		<edge from-layer="115" from-port="1" to-layer="139" to-port="5" />
		<edge from-layer="116" from-port="2" to-layer="131" to-port="4" />
		<edge from-layer="117" from-port="1" to-layer="118" to-port="0" />
		<edge from-layer="118" from-port="1" to-layer="119" to-port="0" />
		<edge from-layer="119" from-port="1" to-layer="135" to-port="4" />
		<edge from-layer="120" from-port="1" to-layer="121" to-port="0" />
		<edge from-layer="121" from-port="1" to-layer="122" to-port="0" />
		<edge from-layer="122" from-port="1" to-layer="139" to-port="4" />
		<edge from-layer="123" from-port="2" to-layer="131" to-port="1" />
		<edge from-layer="124" from-port="1" to-layer="125" to-port="0" />
		<edge from-layer="125" from-port="1" to-layer="126" to-port="0" />
		<edge from-layer="126" from-port="1" to-layer="135" to-port="1" />
		<edge from-layer="127" from-port="1" to-layer="128" to-port="0" />
		<edge from-layer="128" from-port="1" to-layer="129" to-port="0" />
		<edge from-layer="129" from-port="1" to-layer="139" to-port="1" />
		<edge from-layer="130" from-port="2" to-layer="131" to-port="0" />
		<edge from-layer="131" from-port="8" to-layer="143" to-port="2" />
		<edge from-layer="132" from-port="1" to-layer="133" to-port="0" />
		<edge from-layer="133" from-port="1" to-layer="134" to-port="0" />
		<edge from-layer="134" from-port="1" to-layer="135" to-port="0" />
		<edge from-layer="135" from-port="8" to-layer="143" to-port="0" />
		<edge from-layer="136" from-port="1" to-layer="137" to-port="0" />
		<edge from-layer="137" from-port="1" to-layer="138" to-port="0" />
		<edge from-layer="138" from-port="1" to-layer="139" to-port="0" />
		<edge from-layer="139" from-port="8" to-layer="140" to-port="0" />
		<edge from-layer="140" from-port="2" to-layer="141" to-port="0" />
		<edge from-layer="141" from-port="1" to-layer="142" to-port="0" />
		<edge from-layer="142" from-port="1" to-layer="143" to-port="1" />
	</edges>
	<statistics>
		<layer>
			<name>Mul_/Fused_Mul_/FusedScaleShift_</name>
			<min>-1.768000, -1.989000, -2.091000</min>
			<max>2.567000, 2.346000, 2.244000</max>
		</layer>
		<layer>
			<name>conv1</name>
			<min>… -3.174617</min>
			<max>… 4.150146</max>
		</layer>
		<layer>
			<name>conv2_1/dw</name>
			<min>… -5.838311</min>
			<max>… 8.420932</max>
		</layer>
		<layer>
			<name>conv2_1/sep</name>
			<min>… -14.570055</min>
			<max>… 17.375647</max>
		</layer>
		<layer>
			<name>conv2_2/dw</name>
			<min>… -12.653653</min>
			<max>… 25.691626</max>
		</layer>
		<layer>
			<name>conv2_2/sep</name>
			<min>… -8.996966</min>
			<max>… 11.213482</max>
		</layer>
		<layer>
			<name>conv3_1/dw</name>
			<min>… -14.592673</min>
			<max>… 3.709711</max>
		</layer>
		<layer>
			<name>conv3_1/sep</name>
			<min>… -5.233468</min>
			<max>… 11.076554</max>
		</layer>
		<layer>
			<name>conv3_2/dw</name>
			<min>… -3.113041</min>
			<max>… 12.021679</max>
		</layer>
		<layer>
			<name>conv3_2/sep</name>
			<min>… -9.263074</min>
			<max>… 7.222252</max>
		</layer>
		<layer>
			<name>conv4_1/dw</name>
			<min>… -9.648236</min>
			<max>… 4.385352</max>
		</layer>
		<layer>
			<name>conv4_1/sep</name>
			<min>… -5.532669</min>
			<max>… 7.798606</max>
		</layer>
		<layer>
			<name>conv4_2/dw</name>
			<min>… -3.404523</min>
			<max>… 8.891973</max>
		</layer>
		<layer>
			<name>conv4_2/sep</name>
			<min>… -7.860497</min>
			<max>… 12.903067</max>
		</layer>
		<layer>
			<name>conv4_3_0_norm_mbox_conf</name>
			<min>-1.074926, -46.249149, -2.208658, -43.167171, -0.965744, -44.301712, -0.044310, -48.061687</min>
			<max>48.152149, 1.896477, 48.681080, 3.952648, 44.349037, 1.639389, 50.112839, 0.963187</max>
		</layer>
		<layer>
			<name>conv4_3_0_norm_mbox_conf_flat</name>
			<min>… -6.987426</min>
			<max>… -2.374944</max>
		</layer>
		<layer>
			<name>conv4_3_0_norm_mbox_conf_perm</name>
			<min>… -15.407085</min>
			<max>… 15.077667</max>
		</layer>
		<layer>
			<name>conv4_3_0_norm_mbox_loc</name>
			<min>-4.732030, -9.349658, -6.813176, -12.690322, -4.057483, -5.971990, -8.340155, -9.910379, -4.971539, -8.980364, -9.824941, -7.497265, -5.939048, -5.554116, -5.068249, -13.400040</min>
			<max>4.797178, 4.698622, 3.523252, 1.624370, 3.870555, 4.698070, 2.968292, 1.550207, 4.317798, 4.505244, 3.044489, 4.063207, 5.765853, 4.546388, 6.425934, 0.946027</max>
		</layer>
		<layer>
			<name>conv4_3_0_norm_mbox_loc_flat</name>
			<min>… -3.068193</min>
			<max>… -0.539785</max>
		</layer>
		<layer>
			<name>conv4_3_0_norm_mbox_loc_perm</name>
			<min>… -6.955529</min>
			<max>… 3.696616</max>
		</layer>
		<layer>
			<name>conv4_3_0_norm_mbox_priorbox</name>
			<min>-0.011442</min>
			<max>1.011442</max>
		</layer>
		<layer>
			<name>conv4_3_norm_mbox_conf</name>
			<min>-5.367339, -34.276688, -3.886476, -37.736053, -4.310963, -42.409874, 0.820240, -62.892872</min>
			<max>56.832294, 4.142739, 70.828674, 7.890233, 60.980122, 4.750073, 85.935799, -0.116496</max>
		</layer>
		<layer>
			<name>conv4_3_norm_mbox_conf_flat</name>
			<min>… -6.463703</min>
			<max>… -2.276963</max>
		</layer>
		<layer>
			<name>conv4_3_norm_mbox_conf_perm</name>
			<min>… -14.555160</min>
			<max>… 20.539490</max>
		</layer>
		<layer>
			<name>conv4_3_norm_mbox_loc</name>
			<min>-2.971631, -6.495693, -10.305511, -12.914375, -2.841199, -4.675583, -5.203495, -6.730848, -2.463945, -6.769652, -10.926853, -9.237825, -3.119045, -5.979430, -9.704773, -13.893675</min>
			<max>3.074238, 5.089211, 2.919148, 1.332393, 3.587224, 3.163579, 3.582674, 2.971843, 3.653087, 5.032446, 3.209848, 2.252514, 3.567867, 4.990481, 2.856679, 2.265218</max>
		</layer>
		<layer>
			<name>conv4_3_norm_mbox_loc_flat</name>
			<min>… -3.119681</min>
			<max>… -0.886511</max>
		</layer>
		<layer>
			<name>conv4_3_norm_mbox_loc_perm</name>
			<min>… -7.595033</min>
			<max>… 2.581716</max>
		</layer>
		<layer>
			<name>conv4_3_norm_mbox_priorbox</name>
			<min>-0.049877</min>
			<max>1.049877</max>
		</layer>
		<layer>
			<name>conv5_1/dw</name>
			<min>… -9.370394</min>
			<max>… 3.293692</max>
		</layer>
		<layer>
			<name>conv5_1/sep</name>
			<min>… -3.814006</min>
			<max>… 7.113235</max>
		</layer>
		<layer>
			<name>conv5_2/dw</name>
			<min>… -8.848177</min>
			<max>… 1.769909</max>
		</layer>
		<layer>
			<name>conv5_2/sep</name>
			<min>… -6.012237</min>
			<max>… 5.474240</max>
		</layer>
		<layer>
			<name>conv5_3/dw</name>
			<min>… -9.657771</min>
			<max>… 3.455243</max>
		</layer>
		<layer>
			<name>conv5_3/sep</name>
			<min>… -6.271237</min>
			<max>… 6.544234</max>
		</layer>
		<layer>
			<name>conv5_4/dw</name>
			<min>… -7.962984</min>
			<max>… 7.579599</max>
		</layer>
		<layer>
			<name>conv5_4/sep</name>
			<min>… -18.334417</min>
			<max>… 4.908558</max>
		</layer>
		<layer>
			<name>conv5_5/dw</name>
			<min>… -4.273747</min>
			<max>… 4.663967</max>
		</layer>
		<layer>
			<name>conv5_5/sep</name>
			<min>… -5.809649</min>
			<max>… 4.637023</max>
		</layer>
		<layer>
			<name>conv5_6/dw</name>
			<min>… -5.931183</min>
			<max>… 2.100339</max>
		</layer>
		<layer>
			<name>conv5_6/sep</name>
			<min>… -4.602345</min>
			<max>… 4.158536</max>
		</layer>
		<layer>
			<name>conv6/dw</name>
			<min>… -5.801893</min>
			<max>… 4.662014</max>
		</layer>
		<layer>
			<name>conv6/sep</name>
			<min>… -7.193384</min>
			<max>… 5.650533</max>
		</layer>
		<layer>
			<name>conv6_1</name>
			<min>… -3.733954</min>
			<max>… 4.728301</max>
		</layer>
		<layer>
			<name>conv6_2</name>
			<min>… -7.655384</min>
			<max>… 1.983655</max>
		</layer>
		<layer>
			<name>conv6_2/dw</name>
			<min>… -4.537736</min>
			<max>… 1.481449</max>
		</layer>
		<layer>
			<name>conv6_2_mbox_conf</name>
			<min>-2.527371, -12.906252, -6.141061, -13.627890, -4.906230, -17.066193, 1.987364, -13.499504, -4.403176, -15.189267, 2.898242, -10.407717</min>
			<max>21.637472, 4.296928, 29.702461, 5.756379, 26.978086, 4.084712, 17.843973, 0.849043, 26.160923, 2.205266, 10.968506, -2.857522</max>
		</layer>
		<layer>
			<name>conv6_2_mbox_conf_flat</name>
			<min>… -4.991489</min>
			<max>… -3.002457</max>
		</layer>
		<layer>
			<name>conv6_2_mbox_conf_perm</name>
			<min>-14.348413, -17.066193, -11.070138, -10.170321, -13.117483, -12.642113</min>
			<max>29.702461, 26.978086, 15.745115, 14.879163, 15.126349, 16.425041</max>
		</layer>
		<layer>
			<name>conv6_2_mbox_loc</name>
			<min>… -0.054078</min>
			<max>… 0.052598</max>
		</layer>
		<layer>
			<name>conv6_2_mbox_loc_flat</name>
			<min>… -0.052102</min>
			<max>… -0.037180</max>
		</layer>
		<layer>
			<name>conv6_2_mbox_loc_perm</name>
			<min>-3.498371, -2.117221, -2.522761, -3.239320, -2.925608, -2.246900</min>
			<max>2.866602, 2.826292, 2.965180, 3.265743, 2.965734, 2.470167</max>
		</layer>
		<layer>
			<name>conv6_2_mbox_priorbox</name>
			<min>-0.306378</min>
			<max>1.306378</max>
		</layer>
		<layer>
			<name>conv7_1</name>
			<min>… -3.354493</min>
			<max>… 3.351009</max>
		</layer>
		<layer>
			<name>conv7_2</name>
			<min>… -2.515799</min>
			<max>… 3.036611</max>
		</layer>
		<layer>
			<name>conv7_2/dw</name>
			<min>… -2.920254</min>
			<max>… 3.959681</max>
		</layer>
		<layer>
			<name>conv7_2_mbox_conf</name>
			<min>-3.110212, -8.320024, -2.799610, -9.754106, -1.534690, -10.278018, 2.980743, -6.348617, -1.171942, -11.195424, 3.949939, -3.936439</min>
			<max>14.889296, 3.597311, 18.333166, 3.148388, 16.123230, 2.750089, 11.619417, 0.854881, 13.919502, 2.418236, 6.061457, -1.846707</max>
		</layer>
		<layer>
			<name>conv7_2_mbox_conf_flat</name>
			<min>… -2.904755</min>
			<max>… -2.078750</max>
		</layer>
		<layer>
			<name>conv7_2_mbox_conf_perm</name>
			<min>-11.189228, -10.899964, -9.548578</min>
			<max>14.578794, 13.252962, 18.333166</max>
		</layer>
		<layer>
			<name>conv7_2_mbox_loc</name>
			<min>… -1.463410</min>
			<max>… -1.462274</max>
		</layer>
		<layer>
			<name>conv7_2_mbox_loc_flat</name>
			<min>… -1.462497</min>
			<max>… -1.462387</max>
		</layer>
		<layer>
			<name>conv7_2_mbox_loc_perm</name>
			<min>-2.151530, -3.019991, -3.826725</min>
			<max>2.133699, 3.670421, 2.596690</max>
		</layer>
		<layer>
			<name>conv7_2_mbox_priorbox</name>
			<min>-0.352949</min>
			<max>1.352949</max>
		</layer>
		<layer>
			<name>conv8_1</name>
			<min>… -1.763805</min>
			<max>… 3.140384</max>
		</layer>
		<layer>
			<name>conv8_2</name>
			<min>… -2.910824</min>
			<max>… 2.490710</max>
		</layer>
		<layer>
			<name>conv8_2/dw</name>
			<min>… -1.785448</min>
			<max>… 2.847176</max>
		</layer>
		<layer>
			<name>conv8_2_mbox_conf</name>
			<min>-5.373491, -7.730276, -3.727027, -8.847254, -1.116323, -12.260409, 0.929873, -8.438756</min>
			<max>10.809375, 4.276180, 11.534505, 2.429904, 13.213113, 4.213076, 11.639388, -1.532388</max>
		</layer>
		<layer>
			<name>conv8_2_mbox_conf_flat</name>
			<min>… -4.541393</min>
			<max>… -1.973015</max>
		</layer>
		<layer>
			<name>conv8_2_mbox_conf_perm</name>
			<min>-12.260409, -8.913875</min>
			<max>11.384361, 13.213113</max>
		</layer>
		<layer>
			<name>conv8_2_mbox_loc</name>
			<min>-1.267776, -2.142540, -1.260596, -2.047270, -1.877163, -1.814783, -1.057973, -1.791506, -2.270120, -1.993552, -2.006377, -1.866254, -0.170961, -0.089814, -0.004919, -1.575053</min>
			<max>1.368980, 1.321993, 1.576113, -0.344728, 2.002335, 2.162818, 2.043408, 0.275818, 2.373925, 2.737705, 2.341651, 1.622662, 1.214054, 1.316797, 1.123372, -0.972905</max>
		</layer>
		<layer>
			<name>conv8_2_mbox_loc_flat</name>
			<min>… -1.315947</min>
			<max>… -1.110094</max>
		</layer>
		<layer>
			<name>conv8_2_mbox_loc_perm</name>
			<min>-1.959479, -2.518703</min>
			<max>2.737705, 2.424246</max>
		</layer>
		<layer>
			<name>conv8_2_mbox_priorbox</name>
			<min>-0.280330</min>
			<max>1.280330</max>
		</layer>
		<layer>
			<name>conv9_1</name>
			<min>… -2.506318</min>
			<max>… 2.746504</max>
		</layer>
		<layer>
			<name>conv9_2</name>
			<min>… -2.031353</min>
			<max>… 2.216584</max>
		</layer>
		<layer>
			<name>conv9_2/dw</name>
			<min>… -2.696883</min>
			<max>… 2.280144</max>
		</layer>
		<layer>
			<name>conv9_2_mbox_conf</name>
			<min>3.009794, -7.102989, 3.558968, -7.755285, 2.452868, -7.335322, 3.364420, -3.920896</min>
			<max>13.303297, 1.975045, 13.739240, 2.467114, 14.296594, 1.123450, 4.938067, -2.344769</max>
		</layer>
		<layer>
			<name>conv9_2_mbox_conf_flat</name>
			<min>4.082977, -5.672398, 5.387640, -7.186404, 3.180562, -6.574703, 3.380926, -3.920896, 4.312688, -7.102989, 5.296941, -7.705378, 4.788920, -7.335322, 3.364420, -3.251592</min>
			<max>13.303297, 1.831499, 13.739240, 2.044335, 14.296594, 1.123450, 4.938067, -2.363370, 11.473417, 0.745595, 12.458261, 0.009249, 11.831217, -0.914404, 4.272084, -2.344769</max>
		</layer>
		<layer>
			<name>conv9_2_mbox_conf_perm</name>
			<min>-7.757237</min>
			<max>14.296594</max>
		</layer>
		<layer>
			<name>conv9_2_mbox_loc</name>
			<min>-2.557101, -1.175521, -1.151237, -2.139906, -3.477348, -1.092643, -0.775001, -2.122857, -2.320150, -1.299908, -2.226416, -1.083091, 0.084757, 0.025431, 1.376101, -1.303959</min>
			<max>2.892871, 1.180702, 2.268747, 0.402653, 3.882785, 1.185730, 2.482084, 0.401305, 2.784947, 1.593866, 0.946000, 0.848290, 0.084830, 0.025620, 1.376329, -1.303768</max>
		</layer>
		<layer>
			<name>conv9_2_mbox_loc_flat</name>
			<min>… -1.303959</min>
			<max>… -1.303806</max>
		</layer>
		<layer>
			<name>conv9_2_mbox_loc_perm</name>
			<min>-3.477348</min>
			<max>3.882785</max>
		</layer>
		<layer>
			<name>conv9_2_mbox_priorbox</name>
			<min>-0.136396</min>
			<max>1.136396</max>
		</layer>
		<layer>
			<name>data</name>
			<min>0.000000, 0.000000, 0.000000</min>
			<max>255.000000, 255.000000, 255.000000</max>
		</layer>
		<layer>
			<name>detection_out</name>
			<min>-1.000000</min>
			<max>1.016085</max>
		</layer>
		<layer>
			<name>fc7_0_mbox_conf</name>
			<min>-6.578690, -36.672604, -5.138654, -28.218424, -5.641445, -34.804493, 1.358203, -26.581459, -4.344766, -40.227512, 2.875840, -21.784204</min>
			<max>45.060631, 5.219876, 35.150753, 3.873363, 41.167908, 4.528069, 31.828798, -1.732341, 45.342228, 3.438164, 24.085497, -2.389738</max>
		</layer>
		<layer>
			<name>fc7_0_mbox_conf_flat</name>
			<min>… -6.312804</min>
			<max>… -2.924003</max>
		</layer>
		<layer>
			<name>fc7_0_mbox_conf_perm</name>
			<min>-31.249844, -40.227512, -28.601301, -20.087948, -16.586628, -14.861120, -14.656049, -16.087755, -15.929346, -15.117932, -20.281113, -15.384254</min>
			<max>38.246670, 45.342228, 31.987463, 20.995211, 17.663824, 15.623489, 17.156275, 18.628311, 17.405914, 15.787467, 20.246872, 16.025679</max>
		</layer>
		<layer>
			<name>fc7_0_mbox_loc</name>
			<min>… -3.780292</min>
			<max>… -0.240097</max>
		</layer>
		<layer>
			<name>fc7_0_mbox_loc_flat</name>
			<min>… -0.877412</min>
			<max>… -0.340101</max>
		</layer>
		<layer>
			<name>fc7_0_mbox_loc_perm</name>
			<min>-4.778593, -5.049621, -3.701393, -3.042960, -3.428457, -4.195178, -5.564569, -6.256222, -6.484548, -6.510426, -5.560396, -2.857317</min>
			<max>5.885347, 6.084179, 3.463861, 2.532815, 3.659725, 3.727103, 3.476828, 3.573567, 2.980375, 2.376288, 2.376176, 2.613002</max>
		</layer>
		<layer>
			<name>fc7_0_mbox_priorbox</name>
			<min>-0.131538</min>
			<max>1.131538</max>
		</layer>
		<layer>
			<name>fc7_mbox_conf</name>
			<min>-5.031498, -18.325319, -5.054634, -13.279623, -6.854050, -25.566416, 1.789970, -21.898678, -5.826774, -33.952049, 2.848897, -15.467141</min>
			<max>33.309116, 5.088862, 31.651098, 5.507141, 37.343712, 5.524150, 34.740707, -0.368771, 40.094028, 2.922074, 17.538330, -2.637866</max>
		</layer>
		<layer>
			<name>fc7_mbox_conf_flat</name>
			<min>… -5.382219</min>
			<max>… -2.885514</max>
		</layer>
		<layer>
			<name>fc7_mbox_conf_perm</name>
			<min>-24.647038, -33.952049, -26.226242, -18.504652, -14.559481, -12.566864, -13.146416, -12.882863, -12.321879, -12.644042, -15.681821, -13.801381</min>
			<max>32.595486, 40.094028, 31.375189, 22.464001, 17.668015, 15.516000, 15.760185, 15.625301, 14.412188, 15.628410, 19.374668, 17.442057</max>
		</layer>
		<layer>
			<name>fc7_mbox_loc</name>
			<min>… -1.821387</min>
			<max>… -0.308554</max>
		</layer>
		<layer>
			<name>fc7_mbox_loc_flat</name>
			<min>… -0.593601</min>
			<max>… -0.356031</max>
		</layer>
		<layer>
			<name>fc7_mbox_loc_perm</name>
			<min>-11.835491, -12.893500, -8.282665, -8.700913, -7.647159, -7.462480, -10.276748, -14.112263, -16.060421, -16.213383, -16.354046, -10.775243</min>
			<max>4.695186, 4.446294, 3.437595, 2.079612, 2.564496, 3.065959, 3.180561, 3.091022, 3.090149, 2.516157, 2.649002, 1.839131</max>
		</layer>
		<layer>
			<name>fc7_mbox_priorbox</name>
			<min>-0.239792</min>
			<max>1.239792</max>
		</layer>
		<layer>
			<name>mbox_conf</name>
			<min>… -3.251592</min>
			<max>… -2.344769</max>
		</layer>
		<layer>
			<name>mbox_conf_flatten</name>
			<min>… 0.000540</min>
			<max>… 0.003310</max>
		</layer>
		<layer>
			<name>mbox_conf_reshape</name>
			<min>-62.892872</min>
			<max>85.935799</max>
		</layer>
		<layer>
			<name>mbox_conf_softmax</name>
			<min>0.000000</min>
			<max>1.000000</max>
		</layer>
		<layer>
			<name>mbox_loc</name>
			<min>… -1.303959</min>
			<max>… -1.303806</max>
		</layer>
		<layer>
			<name>mbox_priorbox</name>
			<min>-0.352949</min>
			<max>1.352949</max>
		</layer>
		<layer>
			<name>relu1</name>
			<min>… -0.000000</min>
			<max>… 4.150146</max>
		</layer>
		<layer>
			<name>relu2_1/dw</name>
			<min>… -0.000000</min>
			<max>… 8.420932</max>
		</layer>
		<layer>
			<name>relu2_1/sep</name>
			<min>… -0.000000</min>
			<max>… 17.375647</max>
		</layer>
		<layer>
			<name>relu2_2/dw</name>
			<min>… -0.000000</min>
			<max>… 25.691626</max>
		</layer>
		<layer>
			<name>relu2_2/sep</name>
			<min>… -0.000000</min>
			<max>… 11.213482</max>
		</layer>
		<layer>
			<name>relu3_1/dw</name>
			<min>… -0.000000</min>
			<max>… 3.709711</max>
		</layer>
		<layer>
			<name>relu3_1/sep</name>
			<min>… -0.000000</min>
			<max>… 11.076554</max>
		</layer>
		<layer>
			<name>relu3_2/dw</name>
			<min>… -0.000000</min>
			<max>… 12.021679</max>
		</layer>
		<layer>
			<name>relu3_2/sep</name>
			<min>… -0.000000</min>
			<max>… 7.222252</max>
		</layer>
		<layer>
			<name>relu4_1/dw</name>
			<min>… -0.000000</min>
			<max>… 4.385352</max>
		</layer>
		<layer>
			<name>relu4_1/sep</name>
			<min>… -0.000000</min>
			<max>… 7.798606</max>
		</layer>
		<layer>
			<name>relu4_2/dw</name>
			<min>… -0.000000</min>
			<max>… 8.891973</max>
		</layer>
		<layer>
			<name>relu4_2/sep</name>
			<min>… -0.000000</min>
			<max>… 12.903067</max>
		</layer>
		<layer>
			<name>relu5_1/dw</name>
			<min>… -0.000000</min>
			<max>… 3.293692</max>
		</layer>
		<layer>
			<name>relu5_1/sep</name>
			<min>… -0.000000</min>
			<max>… 7.113235</max>
		</layer>
		<layer>
			<name>relu5_2/dw</name>
			<min>… -0.000000</min>
			<max>… 1.769909</max>
		</layer>
		<layer>
			<name>relu5_2/sep</name>
			<min>… -0.000000</min>
			<max>… 5.474240</max>
		</layer>
		<layer>
			<name>relu5_3/dw</name>
			<min>… -0.000000</min>
			<max>… 3.455243</max>
		</layer>
		<layer>
			<name>relu5_3/sep</name>
			<min>… -0.000000</min>
			<max>… 6.544234</max>
		</layer>
		<layer>
			<name>relu5_4/dw</name>
			<min>… -0.000000</min>
			<max>… 7.579599</max>
		</layer>
		<layer>
			<name>relu5_4/sep</name>
			<min>… -0.000000</min>
			<max>… 4.908558</max>
		</layer>
		<layer>
			<name>relu5_5/dw</name>
			<min>… -0.000000</min>
			<max>… 4.663967</max>
		</layer>
		<layer>
			<name>relu5_5/sep</name>
			<min>… -0.000000</min>
			<max>… 4.637023</max>
		</layer>
		<layer>
			<name>relu5_6/dw</name>
			<min>… -0.000000</min>
			<max>… 2.100339</max>
		</layer>
		<layer>
			<name>relu5_6/sep</name>
			<min>… -0.000000</min>
			<max>… 4.158536</max>
		</layer>
		<layer>
			<name>relu6/dw</name>
			<min>… -0.000000</min>
			<max>… 4.662014</max>
		</layer>
		<layer>
			<name>relu6/sep</name>
			<min>… -0.000000</min>
			<max>… 5.650533</max>
		</layer>
		<layer>
			<name>relu6_1</name>
			<min>… -0.000000</min>
			<max>… 4.728301</max>
		</layer>
		<layer>
			<name>relu6_2</name>
			<min>… -0.000000</min>
			<max>… 1.983655</max>
		</layer>
		<layer>
			<name>relu6_2/dw</name>
			<min>… -0.000000</min>
			<max>… 1.481449</max>
		</layer>
		<layer>
			<name>relu7_1</name>
			<min>… -0.000000</min>
			<max>… 3.351009</max>
		</layer>
		<layer>
			<name>relu7_2</name>
			<min>… -0.000000</min>
			<max>… 3.036611</max>
		</layer>
		<layer>
			<name>relu7_2/dw</name>
			<min>… -0.000000</min>
			<max>… 3.959681</max>
		</layer>
		<layer>
			<name>relu8_1</name>
			<min>… -0.000000</min>
			<max>… 3.140384</max>
		</layer>
		<layer>
			<name>relu8_2</name>
			<min>… -0.000000</min>
			<max>… 2.490710</max>
		</layer>
		<layer>
			<name>relu8_2/dw</name>
			<min>… -0.000000</min>
			<max>… 2.847176</max>
		</layer>
		<layer>
			<name>relu9_1</name>
			<min>… -0.000000</min>
			<max>… 2.746504</max>
		</layer>
		<layer>
			<name>relu9_2</name>
			<min>… -0.000000</min>
			<max>… 2.216584</max>
		</layer>
		<layer>
			<name>relu9_2/dw</name>
			<min>… -0.000000</min>
			<max>… 2.280144</max>
		</layer>
	</statistics>
</net>
