<?xml version="1.0" encoding="UTF-8"?>
<net name="vd-net-caffe" version="6" batch="1">
	<layers>
		<layer name="data" type="Input" precision="FP32" id="0">
			<output>
				<port id="0">
					<dim>1</dim>
					<dim>3</dim>
					<dim>384</dim>
					<dim>672</dim>
				</port>
			</output>
		</layer>
		<layer name="Mul_/Fused_Mul_/FusedScaleShift_" type="ScaleShift" precision="FP32" id="1">
			<data broadcast="0"/>
			<input>
				<port id="0">
					<dim>1</dim>
					<dim>3</dim>
					<dim>384</dim>
					<dim>672</dim>
				</port>
			</input>
			<output>
				<port id="1">
					<dim>1</dim>
					<dim>3</dim>
					<dim>384</dim>
					<dim>672</dim>
				</port>
			</output>
			<blobs>
				<biases offset="0" size="12"/>
				<weights offset="12" size="12"/>
			</blobs>
		</layer>
		<layer name="conv1" type="Convolution" precision="FP32" id="2">
			<data dilations="1,1" group="1" kernel="3,3" output="32" pads_begin="1,1" pads_end="1,1" quantization_level="I8" strides="2,2"/>
			<input>
				<port id="0">
					<dim>1</dim>
					<dim>3</dim>
					<dim>384</dim>
					<dim>672</dim>
				</port>
			</input>
			<output>
				<port id="1">
					<dim>1</dim>
					<dim>32</dim>
					<dim>192</dim>
					<dim>336</dim>
				</port>
			</output>
			<blobs>
				<biases offset="24" size="128"/>
				<weights offset="152" size="3456"/>
			</blobs>
		</layer>
		<layer name="relu1" type="ReLU" precision="FP32" id="3">
			<input>
				<port id="0">
					<dim>1</dim>
					<dim>32</dim>
					<dim>192</dim>
					<dim>336</dim>
				</port>
			</input>
			<output>
				<port id="1">
					<dim>1</dim>
					<dim>32</dim>
					<dim>192</dim>
					<dim>336</dim>
				</port>
			</output>
		</layer>
		<layer name="conv2_1/dw" type="Convolution" precision="FP32" id="4">
			<data dilations="1,1" group="32" kernel="3,3" output="32" pads_begin="1,1" pads_end="1,1" quantization_level="I8" strides="1,1"/>
			<input>
				<port id="0">
					<dim>1</dim>
					<dim>32</dim>
					<dim>192</dim>
					<dim>336</dim>
				</port>
			</input>
			<output>
				<port id="1">
					<dim>1</dim>
					<dim>32</dim>
					<dim>192</dim>
					<dim>336</dim>
				</port>
			</output>
			<blobs>
				<biases offset="3608" size="128"/>
				<weights offset="3736" size="1152"/>
			</blobs>
		</layer>
		<layer name="relu2_1/dw" type="ReLU" precision="FP32" id="5">
			<input>
				<port id="0">
					<dim>1</dim>
					<dim>32</dim>
					<dim>192</dim>
					<dim>336</dim>
				</port>
			</input>
			<output>
				<port id="1">
					<dim>1</dim>
					<dim>32</dim>
					<dim>192</dim>
					<dim>336</dim>
				</port>
			</output>
		</layer>
		<layer name="conv2_1/sep" type="Convolution" precision="FP32" id="6">
			<data dilations="1,1" group="1" kernel="1,1" output="56" pads_begin="0,0" pads_end="0,0" quantization_level="I8" strides="1,1"/>
			<input>
				<port id="0">
					<dim>1</dim>
					<dim>32</dim>
					<dim>192</dim>
					<dim>336</dim>
				</port>
			</input>
			<output>
				<port id="1">
					<dim>1</dim>
					<dim>56</dim>
					<dim>192</dim>
					<dim>336</dim>
				</port>
			</output>
			<blobs>
				<biases offset="4888" size="224"/>
				<weights offset="5112" size="7168"/>
			</blobs>
		</layer>
		<layer name="relu2_1/sep" type="ReLU" precision="FP32" id="7">
			<input>
				<port id="0">
					<dim>1</dim>
					<dim>56</dim>
					<dim>192</dim>
					<dim>336</dim>
				</port>
			</input>
			<output>
				<port id="1">
					<dim>1</dim>
					<dim>56</dim>
					<dim>192</dim>
					<dim>336</dim>
				</port>
			</output>
		</layer>
		<layer name="conv2_2/dw" type="Convolution" precision="FP32" id="8">
			<data dilations="1,1" group="56" kernel="3,3" output="56" pads_begin="1,1" pads_end="1,1" quantization_level="I8" strides="2,2"/>
			<input>
				<port id="0">
					<dim>1</dim>
					<dim>56</dim>
					<dim>192</dim>
					<dim>336</dim>
				</port>
			</input>
			<output>
				<port id="1">
					<dim>1</dim>
					<dim>56</dim>
					<dim>96</dim>
					<dim>168</dim>
				</port>
			</output>
			<blobs>
				<biases offset="12280" size="224"/>
				<weights offset="12504" size="2016"/>
			</blobs>
		</layer>
		<layer name="relu2_2/dw" type="ReLU" precision="FP32" id="9">
			<input>
				<port id="0">
					<dim>1</dim>
					<dim>56</dim>
					<dim>96</dim>
					<dim>168</dim>
				</port>
			</input>
			<output>
				<port id="1">
					<dim>1</dim>
					<dim>56</dim>
					<dim>96</dim>
					<dim>168</dim>
				</port>
			</output>
		</layer>
		<layer name="conv2_2/sep" type="Convolution" precision="FP32" id="10">
			<data dilations="1,1" group="1" kernel="1,1" output="112" pads_begin="0,0" pads_end="0,0" quantization_level="I8" strides="1,1"/>
			<input>
				<port id="0">
					<dim>1</dim>
					<dim>56</dim>
					<dim>96</dim>
					<dim>168</dim>
				</port>
			</input>
			<output>
				<port id="1">
					<dim>1</dim>
					<dim>112</dim>
					<dim>96</dim>
					<dim>168</dim>
				</port>
			</output>
			<blobs>
				<biases offset="14520" size="448"/>
				<weights offset="14968" size="25088"/>
			</blobs>
		</layer>
		<layer name="relu2_2/sep" type="ReLU" precision="FP32" id="11">
			<input>
				<port id="0">
					<dim>1</dim>
					<dim>112</dim>
					<dim>96</dim>
					<dim>168</dim>
				</port>
			</input>
			<output>
				<port id="1">
					<dim>1</dim>
					<dim>112</dim>
					<dim>96</dim>
					<dim>168</dim>
				</port>
			</output>
		</layer>
		<layer name="conv3_1/dw" type="Convolution" precision="FP32" id="12">
			<data dilations="1,1" group="112" kernel="3,3" output="112" pads_begin="1,1" pads_end="1,1" quantization_level="I8" strides="1,1"/>
			<input>
				<port id="0">
					<dim>1</dim>
					<dim>112</dim>
					<dim>96</dim>
					<dim>168</dim>
				</port>
			</input>
			<output>
				<port id="1">
					<dim>1</dim>
					<dim>112</dim>
					<dim>96</dim>
					<dim>168</dim>
				</port>
			</output>
			<blobs>
				<biases offset="40056" size="448"/>
				<weights offset="40504" size="4032"/>
			</blobs>
		</layer>
		<layer name="relu3_1/dw" type="ReLU" precision="FP32" id="13">
			<input>
				<port id="0">
					<dim>1</dim>
					<dim>112</dim>
					<dim>96</dim>
					<dim>168</dim>
				</port>
			</input>
			<output>
				<port id="1">
					<dim>1</dim>
					<dim>112</dim>
					<dim>96</dim>
					<dim>168</dim>
				</port>
			</output>
		</layer>
		<layer name="conv3_1/sep" type="Convolution" precision="FP32" id="14">
			<data dilations="1,1" group="1" kernel="1,1" output="112" pads_begin="0,0" pads_end="0,0" quantization_level="I8" strides="1,1"/>
			<input>
				<port id="0">
					<dim>1</dim>
					<dim>112</dim>
					<dim>96</dim>
					<dim>168</dim>
				</port>
			</input>
			<output>
				<port id="1">
					<dim>1</dim>
					<dim>112</dim>
					<dim>96</dim>
					<dim>168</dim>
				</port>
			</output>
			<blobs>
				<biases offset="44536" size="448"/>
				<weights offset="44984" size="50176"/>
			</blobs>
		</layer>
		<layer name="relu3_1/sep" type="ReLU" precision="FP32" id="15">
			<input>
				<port id="0">
					<dim>1</dim>
					<dim>112</dim>
					<dim>96</dim>
					<dim>168</dim>
				</port>
			</input>
			<output>
				<port id="1">
					<dim>1</dim>
					<dim>112</dim>
					<dim>96</dim>
					<dim>168</dim>
				</port>
			</output>
		</layer>
		<layer name="conv3_2/dw" type="Convolution" precision="FP32" id="16">
			<data dilations="1,1" group="112" kernel="3,3" output="112" pads_begin="1,1" pads_end="1,1" quantization_level="I8" strides="2,2"/>
			<input>
				<port id="0">
					<dim>1</dim>
					<dim>112</dim>
					<dim>96</dim>
					<dim>168</dim>
				</port>
			</input>
			<output>
				<port id="1">
					<dim>1</dim>
					<dim>112</dim>
					<dim>48</dim>
					<dim>84</dim>
				</port>
			</output>
			<blobs>
				<biases offset="95160" size="448"/>
				<weights offset="95608" size="4032"/>
			</blobs>
		</layer>
		<layer name="relu3_2/dw" type="ReLU" precision="FP32" id="17">
			<input>
				<port id="0">
					<dim>1</dim>
					<dim>112</dim>
					<dim>48</dim>
					<dim>84</dim>
				</port>
			</input>
			<output>
				<port id="1">
					<dim>1</dim>
					<dim>112</dim>
					<dim>48</dim>
					<dim>84</dim>
				</port>
			</output>
		</layer>
		<layer name="conv3_2/sep" type="Convolution" precision="FP32" id="18">
			<data dilations="1,1" group="1" kernel="1,1" output="208" pads_begin="0,0" pads_end="0,0" quantization_level="I8" strides="1,1"/>
			<input>
				<port id="0">
					<dim>1</dim>
					<dim>112</dim>
					<dim>48</dim>
					<dim>84</dim>
				</port>
			</input>
			<output>
				<port id="1">
					<dim>1</dim>
					<dim>208</dim>
					<dim>48</dim>
					<dim>84</dim>
				</port>
			</output>
			<blobs>
				<biases offset="99640" size="832"/>
				<weights offset="100472" size="93184"/>
			</blobs>
		</layer>
		<layer name="relu3_2/sep" type="ReLU" precision="FP32" id="19">
			<input>
				<port id="0">
					<dim>1</dim>
					<dim>208</dim>
					<dim>48</dim>
					<dim>84</dim>
				</port>
			</input>
			<output>
				<port id="1">
					<dim>1</dim>
					<dim>208</dim>
					<dim>48</dim>
					<dim>84</dim>
				</port>
			</output>
		</layer>
		<layer name="conv4_1/dw" type="Convolution" precision="FP32" id="20">
			<data dilations="1,1" group="208" kernel="3,3" output="208" pads_begin="1,1" pads_end="1,1" quantization_level="I8" strides="1,1"/>
			<input>
				<port id="0">
					<dim>1</dim>
					<dim>208</dim>
					<dim>48</dim>
					<dim>84</dim>
				</port>
			</input>
			<output>
				<port id="1">
					<dim>1</dim>
					<dim>208</dim>
					<dim>48</dim>
					<dim>84</dim>
				</port>
			</output>
			<blobs>
				<biases offset="193656" size="832"/>
				<weights offset="194488" size="7488"/>
			</blobs>
		</layer>
		<layer name="relu4_1/dw" type="ReLU" precision="FP32" id="21">
			<input>
				<port id="0">
					<dim>1</dim>
					<dim>208</dim>
					<dim>48</dim>
					<dim>84</dim>
				</port>
			</input>
			<output>
				<port id="1">
					<dim>1</dim>
					<dim>208</dim>
					<dim>48</dim>
					<dim>84</dim>
				</port>
			</output>
		</layer>
		<layer name="conv4_1/sep" type="Convolution" precision="FP32" id="22">
			<data dilations="1,1" group="1" kernel="1,1" output="216" pads_begin="0,0" pads_end="0,0" quantization_level="I8" strides="1,1"/>
			<input>
				<port id="0">
					<dim>1</dim>
					<dim>208</dim>
					<dim>48</dim>
					<dim>84</dim>
				</port>
			</input>
			<output>
				<port id="1">
					<dim>1</dim>
					<dim>216</dim>
					<dim>48</dim>
					<dim>84</dim>
				</port>
			</output>
			<blobs>
				<biases offset="201976" size="864"/>
				<weights offset="202840" size="179712"/>
			</blobs>
		</layer>
		<layer name="relu4_1/sep" type="ReLU" precision="FP32" id="23">
			<input>
				<port id="0">
					<dim>1</dim>
					<dim>216</dim>
					<dim>48</dim>
					<dim>84</dim>
				</port>
			</input>
			<output>
				<port id="1">
					<dim>1</dim>
					<dim>216</dim>
					<dim>48</dim>
					<dim>84</dim>
				</port>
			</output>
		</layer>
		<layer name="conv4_2/dw" type="Convolution" precision="FP32" id="24">
			<data dilations="1,1" group="216" kernel="3,3" output="216" pads_begin="1,1" pads_end="1,1" quantization_level="FP32" strides="2,2"/>
			<input>
				<port id="0">
					<dim>1</dim>
					<dim>216</dim>
					<dim>48</dim>
					<dim>84</dim>
				</port>
			</input>
			<output>
				<port id="1">
					<dim>1</dim>
					<dim>216</dim>
					<dim>24</dim>
					<dim>42</dim>
				</port>
			</output>
			<blobs>
				<biases offset="382552" size="864"/>
				<weights offset="383416" size="7776"/>
			</blobs>
		</layer>
		<layer name="relu4_2/dw" type="ReLU" precision="FP32" id="25">
			<input>
				<port id="0">
					<dim>1</dim>
					<dim>216</dim>
					<dim>24</dim>
					<dim>42</dim>
				</port>
			</input>
			<output>
				<port id="1">
					<dim>1</dim>
					<dim>216</dim>
					<dim>24</dim>
					<dim>42</dim>
				</port>
			</output>
		</layer>
		<layer name="conv4_2/sep" type="Convolution" precision="FP32" id="26">
			<data dilations="1,1" group="1" kernel="1,1" output="328" pads_begin="0,0" pads_end="0,0" quantization_level="I8" strides="1,1"/>
			<input>
				<port id="0">
					<dim>1</dim>
					<dim>216</dim>
					<dim>24</dim>
					<dim>42</dim>
				</port>
			</input>
			<output>
				<port id="1">
					<dim>1</dim>
					<dim>328</dim>
					<dim>24</dim>
					<dim>42</dim>
				</port>
			</output>
			<blobs>
				<biases offset="391192" size="1312"/>
				<weights offset="392504" size="283392"/>
			</blobs>
		</layer>
		<layer name="relu4_2/sep" type="ReLU" precision="FP32" id="27">
			<input>
				<port id="0">
					<dim>1</dim>
					<dim>328</dim>
					<dim>24</dim>
					<dim>42</dim>
				</port>
			</input>
			<output>
				<port id="1">
					<dim>1</dim>
					<dim>328</dim>
					<dim>24</dim>
					<dim>42</dim>
				</port>
			</output>
		</layer>
		<layer name="conv5_1/dw" type="Convolution" precision="FP32" id="28">
			<data dilations="1,1" group="328" kernel="3,3" output="328" pads_begin="1,1" pads_end="1,1" quantization_level="I8" strides="1,1"/>
			<input>
				<port id="0">
					<dim>1</dim>
					<dim>328</dim>
					<dim>24</dim>
					<dim>42</dim>
				</port>
			</input>
			<output>
				<port id="1">
					<dim>1</dim>
					<dim>328</dim>
					<dim>24</dim>
					<dim>42</dim>
				</port>
			</output>
			<blobs>
				<biases offset="675896" size="1312"/>
				<weights offset="677208" size="11808"/>
			</blobs>
		</layer>
		<layer name="relu5_1/dw" type="ReLU" precision="FP32" id="29">
			<input>
				<port id="0">
					<dim>1</dim>
					<dim>328</dim>
					<dim>24</dim>
					<dim>42</dim>
				</port>
			</input>
			<output>
				<port id="1">
					<dim>1</dim>
					<dim>328</dim>
					<dim>24</dim>
					<dim>42</dim>
				</port>
			</output>
		</layer>
		<layer name="conv5_1/sep" type="Convolution" precision="FP32" id="30">
			<data dilations="1,1" group="1" kernel="1,1" output="288" pads_begin="0,0" pads_end="0,0" quantization_level="I8" strides="1,1"/>
			<input>
				<port id="0">
					<dim>1</dim>
					<dim>328</dim>
					<dim>24</dim>
					<dim>42</dim>
				</port>
			</input>
			<output>
				<port id="1">
					<dim>1</dim>
					<dim>288</dim>
					<dim>24</dim>
					<dim>42</dim>
				</port>
			</output>
			<blobs>
				<biases offset="689016" size="1152"/>
				<weights offset="690168" size="377856"/>
			</blobs>
		</layer>
		<layer name="relu5_1/sep" type="ReLU" precision="FP32" id="31">
			<input>
				<port id="0">
					<dim>1</dim>
					<dim>288</dim>
					<dim>24</dim>
					<dim>42</dim>
				</port>
			</input>
			<output>
				<port id="1">
					<dim>1</dim>
					<dim>288</dim>
					<dim>24</dim>
					<dim>42</dim>
				</port>
			</output>
		</layer>
		<layer name="conv5_2/dw" type="Convolution" precision="FP32" id="32">
			<data dilations="1,1" group="288" kernel="3,3" output="288" pads_begin="1,1" pads_end="1,1" quantization_level="I8" strides="1,1"/>
			<input>
				<port id="0">
					<dim>1</dim>
					<dim>288</dim>
					<dim>24</dim>
					<dim>42</dim>
				</port>
			</input>
			<output>
				<port id="1">
					<dim>1</dim>
					<dim>288</dim>
					<dim>24</dim>
					<dim>42</dim>
				</port>
			</output>
			<blobs>
				<biases offset="1068024" size="1152"/>
				<weights offset="1069176" size="10368"/>
			</blobs>
		</layer>
		<layer name="relu5_2/dw" type="ReLU" precision="FP32" id="33">
			<input>
				<port id="0">
					<dim>1</dim>
					<dim>288</dim>
					<dim>24</dim>
					<dim>42</dim>
				</port>
			</input>
			<output>
				<port id="1">
					<dim>1</dim>
					<dim>288</dim>
					<dim>24</dim>
					<dim>42</dim>
				</port>
			</output>
		</layer>
		<layer name="conv5_2/sep" type="Convolution" precision="FP32" id="34">
			<data dilations="1,1" group="1" kernel="1,1" output="288" pads_begin="0,0" pads_end="0,0" quantization_level="I8" strides="1,1"/>
			<input>
				<port id="0">
					<dim>1</dim>
					<dim>288</dim>
					<dim>24</dim>
					<dim>42</dim>
				</port>
			</input>
			<output>
				<port id="1">
					<dim>1</dim>
					<dim>288</dim>
					<dim>24</dim>
					<dim>42</dim>
				</port>
			</output>
			<blobs>
				<biases offset="1079544" size="1152"/>
				<weights offset="1080696" size="331776"/>
			</blobs>
		</layer>
		<layer name="relu5_2/sep" type="ReLU" precision="FP32" id="35">
			<input>
				<port id="0">
					<dim>1</dim>
					<dim>288</dim>
					<dim>24</dim>
					<dim>42</dim>
				</port>
			</input>
			<output>
				<port id="1">
					<dim>1</dim>
					<dim>288</dim>
					<dim>24</dim>
					<dim>42</dim>
				</port>
			</output>
		</layer>
		<layer name="conv5_3/dw" type="Convolution" precision="FP32" id="36">
			<data dilations="1,1" group="288" kernel="3,3" output="288" pads_begin="1,1" pads_end="1,1" quantization_level="I8" strides="1,1"/>
			<input>
				<port id="0">
					<dim>1</dim>
					<dim>288</dim>
					<dim>24</dim>
					<dim>42</dim>
				</port>
			</input>
			<output>
				<port id="1">
					<dim>1</dim>
					<dim>288</dim>
					<dim>24</dim>
					<dim>42</dim>
				</port>
			</output>
			<blobs>
				<biases offset="1412472" size="1152"/>
				<weights offset="1413624" size="10368"/>
			</blobs>
		</layer>
		<layer name="relu5_3/dw" type="ReLU" precision="FP32" id="37">
			<input>
				<port id="0">
					<dim>1</dim>
					<dim>288</dim>
					<dim>24</dim>
					<dim>42</dim>
				</port>
			</input>
			<output>
				<port id="1">
					<dim>1</dim>
					<dim>288</dim>
					<dim>24</dim>
					<dim>42</dim>
				</port>
			</output>
		</layer>
		<layer name="conv5_3/sep" type="Convolution" precision="FP32" id="38">
			<data dilations="1,1" group="1" kernel="1,1" output="240" pads_begin="0,0" pads_end="0,0" quantization_level="I8" strides="1,1"/>
			<input>
				<port id="0">
					<dim>1</dim>
					<dim>288</dim>
					<dim>24</dim>
					<dim>42</dim>
				</port>
			</input>
			<output>
				<port id="1">
					<dim>1</dim>
					<dim>240</dim>
					<dim>24</dim>
					<dim>42</dim>
				</port>
			</output>
			<blobs>
				<biases offset="1423992" size="960"/>
				<weights offset="1424952" size="276480"/>
			</blobs>
		</layer>
		<layer name="relu5_3/sep" type="ReLU" precision="FP32" id="39">
			<input>
				<port id="0">
					<dim>1</dim>
					<dim>240</dim>
					<dim>24</dim>
					<dim>42</dim>
				</port>
			</input>
			<output>
				<port id="1">
					<dim>1</dim>
					<dim>240</dim>
					<dim>24</dim>
					<dim>42</dim>
				</port>
			</output>
		</layer>
		<layer name="conv5_4/dw" type="Convolution" precision="FP32" id="40">
			<data dilations="1,1" group="240" kernel="3,3" output="240" pads_begin="1,1" pads_end="1,1" quantization_level="I8" strides="1,1"/>
			<input>
				<port id="0">
					<dim>1</dim>
					<dim>240</dim>
					<dim>24</dim>
					<dim>42</dim>
				</port>
			</input>
			<output>
				<port id="1">
					<dim>1</dim>
					<dim>240</dim>
					<dim>24</dim>
					<dim>42</dim>
				</port>
			</output>
			<blobs>
				<biases offset="1701432" size="960"/>
				<weights offset="1702392" size="8640"/>
			</blobs>
		</layer>
		<layer name="relu5_4/dw" type="ReLU" precision="FP32" id="41">
			<input>
				<port id="0">
					<dim>1</dim>
					<dim>240</dim>
					<dim>24</dim>
					<dim>42</dim>
				</port>
			</input>
			<output>
				<port id="1">
					<dim>1</dim>
					<dim>240</dim>
					<dim>24</dim>
					<dim>42</dim>
				</port>
			</output>
		</layer>
		<layer name="conv5_4/sep" type="Convolution" precision="FP32" id="42">
			<data dilations="1,1" group="1" kernel="1,1" output="264" pads_begin="0,0" pads_end="0,0" quantization_level="I8" strides="1,1"/>
			<input>
				<port id="0">
					<dim>1</dim>
					<dim>240</dim>
					<dim>24</dim>
					<dim>42</dim>
				</port>
			</input>
			<output>
				<port id="1">
					<dim>1</dim>
					<dim>264</dim>
					<dim>24</dim>
					<dim>42</dim>
				</port>
			</output>
			<blobs>
				<biases offset="1711032" size="1056"/>
				<weights offset="1712088" size="253440"/>
			</blobs>
		</layer>
		<layer name="relu5_4/sep" type="ReLU" precision="FP32" id="43">
			<input>
				<port id="0">
					<dim>1</dim>
					<dim>264</dim>
					<dim>24</dim>
					<dim>42</dim>
				</port>
			</input>
			<output>
				<port id="1">
					<dim>1</dim>
					<dim>264</dim>
					<dim>24</dim>
					<dim>42</dim>
				</port>
			</output>
		</layer>
		<layer name="conv5_5/dw" type="Convolution" precision="FP32" id="44">
			<data dilations="1,1" group="264" kernel="3,3" output="264" pads_begin="1,1" pads_end="1,1" quantization_level="FP32" strides="1,1"/>
			<input>
				<port id="0">
					<dim>1</dim>
					<dim>264</dim>
					<dim>24</dim>
					<dim>42</dim>
				</port>
			</input>
			<output>
				<port id="1">
					<dim>1</dim>
					<dim>264</dim>
					<dim>24</dim>
					<dim>42</dim>
				</port>
			</output>
			<blobs>
				<biases offset="1965528" size="1056"/>
				<weights offset="1966584" size="9504"/>
			</blobs>
		</layer>
		<layer name="relu5_5/dw" type="ReLU" precision="FP32" id="45">
			<input>
				<port id="0">
					<dim>1</dim>
					<dim>264</dim>
					<dim>24</dim>
					<dim>42</dim>
				</port>
			</input>
			<output>
				<port id="1">
					<dim>1</dim>
					<dim>264</dim>
					<dim>24</dim>
					<dim>42</dim>
				</port>
			</output>
		</layer>
		<layer name="conv5_5/sep" type="Convolution" precision="FP32" id="46">
			<data dilations="1,1" group="1" kernel="1,1" output="192" pads_begin="0,0" pads_end="0,0" quantization_level="I8" strides="1,1"/>
			<input>
				<port id="0">
					<dim>1</dim>
					<dim>264</dim>
					<dim>24</dim>
					<dim>42</dim>
				</port>
			</input>
			<output>
				<port id="1">
					<dim>1</dim>
					<dim>192</dim>
					<dim>24</dim>
					<dim>42</dim>
				</port>
			</output>
			<blobs>
				<biases offset="1976088" size="768"/>
				<weights offset="1976856" size="202752"/>
			</blobs>
		</layer>
		<layer name="relu5_5/sep" type="ReLU" precision="FP32" id="47">
			<input>
				<port id="0">
					<dim>1</dim>
					<dim>192</dim>
					<dim>24</dim>
					<dim>42</dim>
				</port>
			</input>
			<output>
				<port id="1">
					<dim>1</dim>
					<dim>192</dim>
					<dim>24</dim>
					<dim>42</dim>
				</port>
			</output>
		</layer>
		<layer name="conv5_6/dw" type="Convolution" precision="FP32" id="48">
			<data dilations="1,1" group="192" kernel="3,3" output="192" pads_begin="1,1" pads_end="1,1" quantization_level="I8" strides="2,2"/>
			<input>
				<port id="0">
					<dim>1</dim>
					<dim>192</dim>
					<dim>24</dim>
					<dim>42</dim>
				</port>
			</input>
			<output>
				<port id="1">
					<dim>1</dim>
					<dim>192</dim>
					<dim>12</dim>
					<dim>21</dim>
				</port>
			</output>
			<blobs>
				<biases offset="2179608" size="768"/>
				<weights offset="2180376" size="6912"/>
			</blobs>
		</layer>
		<layer name="relu5_6/dw" type="ReLU" precision="FP32" id="49">
			<input>
				<port id="0">
					<dim>1</dim>
					<dim>192</dim>
					<dim>12</dim>
					<dim>21</dim>
				</port>
			</input>
			<output>
				<port id="1">
					<dim>1</dim>
					<dim>192</dim>
					<dim>12</dim>
					<dim>21</dim>
				</port>
			</output>
		</layer>
		<layer name="conv5_6/sep" type="Convolution" precision="FP32" id="50">
			<data dilations="1,1" group="1" kernel="1,1" output="208" pads_begin="0,0" pads_end="0,0" quantization_level="I8" strides="1,1"/>
			<input>
				<port id="0">
					<dim>1</dim>
					<dim>192</dim>
					<dim>12</dim>
					<dim>21</dim>
				</port>
			</input>
			<output>
				<port id="1">
					<dim>1</dim>
					<dim>208</dim>
					<dim>12</dim>
					<dim>21</dim>
				</port>
			</output>
			<blobs>
				<biases offset="2187288" size="832"/>
				<weights offset="2188120" size="159744"/>
			</blobs>
		</layer>
		<layer name="relu5_6/sep" type="ReLU" precision="FP32" id="51">
			<input>
				<port id="0">
					<dim>1</dim>
					<dim>208</dim>
					<dim>12</dim>
					<dim>21</dim>
				</port>
			</input>
			<output>
				<port id="1">
					<dim>1</dim>
					<dim>208</dim>
					<dim>12</dim>
					<dim>21</dim>
				</port>
			</output>
		</layer>
		<layer name="conv6/dw" type="Convolution" precision="FP32" id="52">
			<data dilations="1,1" group="208" kernel="3,3" output="208" pads_begin="1,1" pads_end="1,1" quantization_level="I8" strides="1,1"/>
			<input>
				<port id="0">
					<dim>1</dim>
					<dim>208</dim>
					<dim>12</dim>
					<dim>21</dim>
				</port>
			</input>
			<output>
				<port id="1">
					<dim>1</dim>
					<dim>208</dim>
					<dim>12</dim>
					<dim>21</dim>
				</port>
			</output>
			<blobs>
				<biases offset="2347864" size="832"/>
				<weights offset="2348696" size="7488"/>
			</blobs>
		</layer>
		<layer name="relu6/dw" type="ReLU" precision="FP32" id="53">
			<input>
				<port id="0">
					<dim>1</dim>
					<dim>208</dim>
					<dim>12</dim>
					<dim>21</dim>
				</port>
			</input>
			<output>
				<port id="1">
					<dim>1</dim>
					<dim>208</dim>
					<dim>12</dim>
					<dim>21</dim>
				</port>
			</output>
		</layer>
		<layer name="conv6/sep" type="Convolution" precision="FP32" id="54">
			<data dilations="1,1" group="1" kernel="1,1" output="88" pads_begin="0,0" pads_end="0,0" quantization_level="I8" strides="1,1"/>
			<input>
				<port id="0">
					<dim>1</dim>
					<dim>208</dim>
					<dim>12</dim>
					<dim>21</dim>
				</port>
			</input>
			<output>
				<port id="1">
					<dim>1</dim>
					<dim>88</dim>
					<dim>12</dim>
					<dim>21</dim>
				</port>
			</output>
			<blobs>
				<biases offset="2356184" size="352"/>
				<weights offset="2356536" size="73216"/>
			</blobs>
		</layer>
		<layer name="relu6/sep" type="ReLU" precision="FP32" id="55">
			<input>
				<port id="0">
					<dim>1</dim>
					<dim>88</dim>
					<dim>12</dim>
					<dim>21</dim>
				</port>
			</input>
			<output>
				<port id="1">
					<dim>1</dim>
					<dim>88</dim>
					<dim>12</dim>
					<dim>21</dim>
				</port>
			</output>
		</layer>
		<layer name="fc7_mbox_priorbox" type="PriorBox" precision="FP32" id="56">
			<data aspect_ratio="2.0,3.0" clip="0" density="" fixed_ratio="" fixed_size="" flip="1" max_size="172.8000030517578" min_size="124.80000305175781" offset="0.5" step="32.0" variance="0.10000000149011612,0.10000000149011612,0.20000000298023224,0.20000000298023224"/>
			<input>
				<port id="0">
					<dim>1</dim>
					<dim>88</dim>
					<dim>12</dim>
					<dim>21</dim>
				</port>
				<port id="1">
					<dim>1</dim>
					<dim>3</dim>
					<dim>384</dim>
					<dim>672</dim>
				</port>
			</input>
			<output>
				<port id="2">
					<dim>1</dim>
					<dim>2</dim>
					<dim>6048</dim>
				</port>
			</output>
		</layer>
		<layer name="fc7_mbox_loc" type="Convolution" precision="FP32" id="57">
			<data dilations="1,1" group="1" kernel="3,3" output="24" pads_begin="1,1" pads_end="1,1" quantization_level="I8" strides="1,1"/>
			<input>
				<port id="0">
					<dim>1</dim>
					<dim>88</dim>
					<dim>12</dim>
					<dim>21</dim>
				</port>
			</input>
			<output>
				<port id="1">
					<dim>1</dim>
					<dim>24</dim>
					<dim>12</dim>
					<dim>21</dim>
				</port>
			</output>
			<blobs>
				<biases offset="2429752" size="96"/>
				<weights offset="2429848" size="76032"/>
			</blobs>
		</layer>
		<layer name="fc7_mbox_loc_perm" type="Permute" precision="FP32" id="58">
			<data order="0,2,3,1"/>
			<input>
				<port id="0">
					<dim>1</dim>
					<dim>24</dim>
					<dim>12</dim>
					<dim>21</dim>
				</port>
			</input>
			<output>
				<port id="1">
					<dim>1</dim>
					<dim>12</dim>
					<dim>21</dim>
					<dim>24</dim>
				</port>
			</output>
		</layer>
		<layer name="fc7_mbox_loc_flat" type="Flatten" precision="FP32" id="59">
			<data axis="1" end_axis="-1"/>
			<input>
				<port id="0">
					<dim>1</dim>
					<dim>12</dim>
					<dim>21</dim>
					<dim>24</dim>
				</port>
			</input>
			<output>
				<port id="1">
					<dim>1</dim>
					<dim>6048</dim>
				</port>
			</output>
		</layer>
		<layer name="fc7_mbox_conf" type="Convolution" precision="FP32" id="60">
			<data dilations="1,1" group="1" kernel="3,3" output="12" pads_begin="1,1" pads_end="1,1" quantization_level="I8" strides="1,1"/>
			<input>
				<port id="0">
					<dim>1</dim>
					<dim>88</dim>
					<dim>12</dim>
					<dim>21</dim>
				</port>
			</input>
			<output>
				<port id="1">
					<dim>1</dim>
					<dim>12</dim>
					<dim>12</dim>
					<dim>21</dim>
				</port>
			</output>
			<blobs>
				<biases offset="2505880" size="48"/>
				<weights offset="2505928" size="38016"/>
			</blobs>
		</layer>
		<layer name="fc7_mbox_conf_perm" type="Permute" precision="FP32" id="61">
			<data order="0,2,3,1"/>
			<input>
				<port id="0">
					<dim>1</dim>
					<dim>12</dim>
					<dim>12</dim>
					<dim>21</dim>
				</port>
			</input>
			<output>
				<port id="1">
					<dim>1</dim>
					<dim>12</dim>
					<dim>21</dim>
					<dim>12</dim>
				</port>
			</output>
		</layer>
		<layer name="fc7_mbox_conf_flat" type="Flatten" precision="FP32" id="62">
			<data axis="1" end_axis="-1"/>
			<input>
				<port id="0">
					<dim>1</dim>
					<dim>12</dim>
					<dim>21</dim>
					<dim>12</dim>
				</port>
			</input>
			<output>
				<port id="1">
					<dim>1</dim>
					<dim>3024</dim>
				</port>
			</output>
		</layer>
		<layer name="fc7_0_mbox_priorbox" type="PriorBox" precision="FP32" id="63">
			<data aspect_ratio="2.0,3.0" clip="0" density="" fixed_ratio="" fixed_size="" flip="1" max_size="124.80000305175781" min_size="76.80000305175781" offset="0.5" step="32.0" variance="0.10000000149011612,0.10000000149011612,0.20000000298023224,0.20000000298023224"/>
			<input>
				<port id="0">
					<dim>1</dim>
					<dim>88</dim>
					<dim>12</dim>
					<dim>21</dim>
				</port>
				<port id="1">
					<dim>1</dim>
					<dim>3</dim>
					<dim>384</dim>
					<dim>672</dim>
				</port>
			</input>
			<output>
				<port id="2">
					<dim>1</dim>
					<dim>2</dim>
					<dim>6048</dim>
				</port>
			</output>
		</layer>
		<layer name="fc7_0_mbox_loc" type="Convolution" precision="FP32" id="64">
			<data dilations="1,1" group="1" kernel="3,3" output="24" pads_begin="1,1" pads_end="1,1" quantization_level="I8" strides="1,1"/>
			<input>
				<port id="0">
					<dim>1</dim>
					<dim>88</dim>
					<dim>12</dim>
					<dim>21</dim>
				</port>
			</input>
			<output>
				<port id="1">
					<dim>1</dim>
					<dim>24</dim>
					<dim>12</dim>
					<dim>21</dim>
				</port>
			</output>
			<blobs>
				<biases offset="2543944" size="96"/>
				<weights offset="2544040" size="76032"/>
			</blobs>
		</layer>
		<layer name="fc7_0_mbox_loc_perm" type="Permute" precision="FP32" id="65">
			<data order="0,2,3,1"/>
			<input>
				<port id="0">
					<dim>1</dim>
					<dim>24</dim>
					<dim>12</dim>
					<dim>21</dim>
				</port>
			</input>
			<output>
				<port id="1">
					<dim>1</dim>
					<dim>12</dim>
					<dim>21</dim>
					<dim>24</dim>
				</port>
			</output>
		</layer>
		<layer name="fc7_0_mbox_loc_flat" type="Flatten" precision="FP32" id="66">
			<data axis="1" end_axis="-1"/>
			<input>
				<port id="0">
					<dim>1</dim>
					<dim>12</dim>
					<dim>21</dim>
					<dim>24</dim>
				</port>
			</input>
			<output>
				<port id="1">
					<dim>1</dim>
					<dim>6048</dim>
				</port>
			</output>
		</layer>
		<layer name="fc7_0_mbox_conf" type="Convolution" precision="FP32" id="67">
			<data dilations="1,1" group="1" kernel="3,3" output="12" pads_begin="1,1" pads_end="1,1" quantization_level="I8" strides="1,1"/>
			<input>
				<port id="0">
					<dim>1</dim>
					<dim>88</dim>
					<dim>12</dim>
					<dim>21</dim>
				</port>
			</input>
			<output>
				<port id="1">
					<dim>1</dim>
					<dim>12</dim>
					<dim>12</dim>
					<dim>21</dim>
				</port>
			</output>
			<blobs>
				<biases offset="2620072" size="48"/>
				<weights offset="2620120" size="38016"/>
			</blobs>
		</layer>
		<layer name="fc7_0_mbox_conf_perm" type="Permute" precision="FP32" id="68">
			<data order="0,2,3,1"/>
			<input>
				<port id="0">
					<dim>1</dim>
					<dim>12</dim>
					<dim>12</dim>
					<dim>21</dim>
				</port>
			</input>
			<output>
				<port id="1">
					<dim>1</dim>
					<dim>12</dim>
					<dim>21</dim>
					<dim>12</dim>
				</port>
			</output>
		</layer>
		<layer name="fc7_0_mbox_conf_flat" type="Flatten" precision="FP32" id="69">
			<data axis="1" end_axis="-1"/>
			<input>
				<port id="0">
					<dim>1</dim>
					<dim>12</dim>
					<dim>21</dim>
					<dim>12</dim>
				</port>
			</input>
			<output>
				<port id="1">
					<dim>1</dim>
					<dim>3024</dim>
				</port>
			</output>
		</layer>
		<layer name="conv6_1" type="Convolution" precision="FP32" id="70">
			<data dilations="1,1" group="1" kernel="1,1" output="96" pads_begin="0,0" pads_end="0,0" quantization_level="I8" strides="1,1"/>
			<input>
				<port id="0">
					<dim>1</dim>
					<dim>88</dim>
					<dim>12</dim>
					<dim>21</dim>
				</port>
			</input>
			<output>
				<port id="1">
					<dim>1</dim>
					<dim>96</dim>
					<dim>12</dim>
					<dim>21</dim>
				</port>
			</output>
			<blobs>
				<biases offset="2658136" size="384"/>
				<weights offset="2658520" size="33792"/>
			</blobs>
		</layer>
		<layer name="relu6_1" type="ReLU" precision="FP32" id="71">
			<input>
				<port id="0">
					<dim>1</dim>
					<dim>96</dim>
					<dim>12</dim>
					<dim>21</dim>
				</port>
			</input>
			<output>
				<port id="1">
					<dim>1</dim>
					<dim>96</dim>
					<dim>12</dim>
					<dim>21</dim>
				</port>
			</output>
		</layer>
		<layer name="conv6_2/dw" type="Convolution" precision="FP32" id="72">
			<data dilations="1,1" group="96" kernel="3,3" output="96" pads_begin="1,1" pads_end="1,1" quantization_level="I8" strides="2,2"/>
			<input>
				<port id="0">
					<dim>1</dim>
					<dim>96</dim>
					<dim>12</dim>
					<dim>21</dim>
				</port>
			</input>
			<output>
				<port id="1">
					<dim>1</dim>
					<dim>96</dim>
					<dim>6</dim>
					<dim>11</dim>
				</port>
			</output>
			<blobs>
				<biases offset="2692312" size="384"/>
				<weights offset="2692696" size="3456"/>
			</blobs>
		</layer>
		<layer name="relu6_2/dw" type="ReLU" precision="FP32" id="73">
			<input>
				<port id="0">
					<dim>1</dim>
					<dim>96</dim>
					<dim>6</dim>
					<dim>11</dim>
				</port>
			</input>
			<output>
				<port id="1">
					<dim>1</dim>
					<dim>96</dim>
					<dim>6</dim>
					<dim>11</dim>
				</port>
			</output>
		</layer>
		<layer name="conv6_2" type="Convolution" precision="FP32" id="74">
			<data dilations="1,1" group="1" kernel="1,1" output="152" pads_begin="0,0" pads_end="0,0" quantization_level="I8" strides="1,1"/>
			<input>
				<port id="0">
					<dim>1</dim>
					<dim>96</dim>
					<dim>6</dim>
					<dim>11</dim>
				</port>
			</input>
			<output>
				<port id="1">
					<dim>1</dim>
					<dim>152</dim>
					<dim>6</dim>
					<dim>11</dim>
				</port>
			</output>
			<blobs>
				<biases offset="2696152" size="608"/>
				<weights offset="2696760" size="58368"/>
			</blobs>
		</layer>
		<layer name="relu6_2" type="ReLU" precision="FP32" id="75">
			<input>
				<port id="0">
					<dim>1</dim>
					<dim>152</dim>
					<dim>6</dim>
					<dim>11</dim>
				</port>
			</input>
			<output>
				<port id="1">
					<dim>1</dim>
					<dim>152</dim>
					<dim>6</dim>
					<dim>11</dim>
				</port>
			</output>
		</layer>
		<layer name="conv7_1" type="Convolution" precision="FP32" id="76">
			<data dilations="1,1" group="1" kernel="1,1" output="112" pads_begin="0,0" pads_end="0,0" quantization_level="I8" strides="1,1"/>
			<input>
				<port id="0">
					<dim>1</dim>
					<dim>152</dim>
					<dim>6</dim>
					<dim>11</dim>
				</port>
			</input>
			<output>
				<port id="1">
					<dim>1</dim>
					<dim>112</dim>
					<dim>6</dim>
					<dim>11</dim>
				</port>
			</output>
			<blobs>
				<biases offset="2755128" size="448"/>
				<weights offset="2755576" size="68096"/>
			</blobs>
		</layer>
		<layer name="relu7_1" type="ReLU" precision="FP32" id="77">
			<input>
				<port id="0">
					<dim>1</dim>
					<dim>112</dim>
					<dim>6</dim>
					<dim>11</dim>
				</port>
			</input>
			<output>
				<port id="1">
					<dim>1</dim>
					<dim>112</dim>
					<dim>6</dim>
					<dim>11</dim>
				</port>
			</output>
		</layer>
		<layer name="conv7_2/dw" type="Convolution" precision="FP32" id="78">
			<data dilations="1,1" group="112" kernel="3,3" output="112" pads_begin="1,1" pads_end="1,1" quantization_level="I8" strides="2,2"/>
			<input>
				<port id="0">
					<dim>1</dim>
					<dim>112</dim>
					<dim>6</dim>
					<dim>11</dim>
				</port>
			</input>
			<output>
				<port id="1">
					<dim>1</dim>
					<dim>112</dim>
					<dim>3</dim>
					<dim>6</dim>
				</port>
			</output>
			<blobs>
				<biases offset="2823672" size="448"/>
				<weights offset="2824120" size="4032"/>
			</blobs>
		</layer>
		<layer name="relu7_2/dw" type="ReLU" precision="FP32" id="79">
			<input>
				<port id="0">
					<dim>1</dim>
					<dim>112</dim>
					<dim>3</dim>
					<dim>6</dim>
				</port>
			</input>
			<output>
				<port id="1">
					<dim>1</dim>
					<dim>112</dim>
					<dim>3</dim>
					<dim>6</dim>
				</port>
			</output>
		</layer>
		<layer name="conv7_2" type="Convolution" precision="FP32" id="80">
			<data dilations="1,1" group="1" kernel="1,1" output="200" pads_begin="0,0" pads_end="0,0" quantization_level="I8" strides="1,1"/>
			<input>
				<port id="0">
					<dim>1</dim>
					<dim>112</dim>
					<dim>3</dim>
					<dim>6</dim>
				</port>
			</input>
			<output>
				<port id="1">
					<dim>1</dim>
					<dim>200</dim>
					<dim>3</dim>
					<dim>6</dim>
				</port>
			</output>
			<blobs>
				<biases offset="2828152" size="800"/>
				<weights offset="2828952" size="89600"/>
			</blobs>
		</layer>
		<layer name="relu7_2" type="ReLU" precision="FP32" id="81">
			<input>
				<port id="0">
					<dim>1</dim>
					<dim>200</dim>
					<dim>3</dim>
					<dim>6</dim>
				</port>
			</input>
			<output>
				<port id="1">
					<dim>1</dim>
					<dim>200</dim>
					<dim>3</dim>
					<dim>6</dim>
				</port>
			</output>
		</layer>
		<layer name="conv8_1" type="Convolution" precision="FP32" id="82">
			<data dilations="1,1" group="1" kernel="1,1" output="120" pads_begin="0,0" pads_end="0,0" quantization_level="I8" strides="1,1"/>
			<input>
				<port id="0">
					<dim>1</dim>
					<dim>200</dim>
					<dim>3</dim>
					<dim>6</dim>
				</port>
			</input>
			<output>
				<port id="1">
					<dim>1</dim>
					<dim>120</dim>
					<dim>3</dim>
					<dim>6</dim>
				</port>
			</output>
			<blobs>
				<biases offset="2918552" size="480"/>
				<weights offset="2919032" size="96000"/>
			</blobs>
		</layer>
		<layer name="relu8_1" type="ReLU" precision="FP32" id="83">
			<input>
				<port id="0">
					<dim>1</dim>
					<dim>120</dim>
					<dim>3</dim>
					<dim>6</dim>
				</port>
			</input>
			<output>
				<port id="1">
					<dim>1</dim>
					<dim>120</dim>
					<dim>3</dim>
					<dim>6</dim>
				</port>
			</output>
		</layer>
		<layer name="conv8_2/dw" type="Convolution" precision="FP32" id="84">
			<data dilations="1,1" group="120" kernel="3,3" output="120" pads_begin="1,1" pads_end="1,1" quantization_level="FP32" strides="2,2"/>
			<input>
				<port id="0">
					<dim>1</dim>
					<dim>120</dim>
					<dim>3</dim>
					<dim>6</dim>
				</port>
			</input>
			<output>
				<port id="1">
					<dim>1</dim>
					<dim>120</dim>
					<dim>2</dim>
					<dim>3</dim>
				</port>
			</output>
			<blobs>
				<biases offset="3015032" size="480"/>
				<weights offset="3015512" size="4320"/>
			</blobs>
		</layer>
		<layer name="relu8_2/dw" type="ReLU" precision="FP32" id="85">
			<input>
				<port id="0">
					<dim>1</dim>
					<dim>120</dim>
					<dim>2</dim>
					<dim>3</dim>
				</port>
			</input>
			<output>
				<port id="1">
					<dim>1</dim>
					<dim>120</dim>
					<dim>2</dim>
					<dim>3</dim>
				</port>
			</output>
		</layer>
		<layer name="conv8_2" type="Convolution" precision="FP32" id="86">
			<data dilations="1,1" group="1" kernel="1,1" output="224" pads_begin="0,0" pads_end="0,0" quantization_level="I8" strides="1,1"/>
			<input>
				<port id="0">
					<dim>1</dim>
					<dim>120</dim>
					<dim>2</dim>
					<dim>3</dim>
				</port>
			</input>
			<output>
				<port id="1">
					<dim>1</dim>
					<dim>224</dim>
					<dim>2</dim>
					<dim>3</dim>
				</port>
			</output>
			<blobs>
				<biases offset="3019832" size="896"/>
				<weights offset="3020728" size="107520"/>
			</blobs>
		</layer>
		<layer name="relu8_2" type="ReLU" precision="FP32" id="87">
			<input>
				<port id="0">
					<dim>1</dim>
					<dim>224</dim>
					<dim>2</dim>
					<dim>3</dim>
				</port>
			</input>
			<output>
				<port id="1">
					<dim>1</dim>
					<dim>224</dim>
					<dim>2</dim>
					<dim>3</dim>
				</port>
			</output>
		</layer>
		<layer name="conv9_1" type="Convolution" precision="FP32" id="88">
			<data dilations="1,1" group="1" kernel="1,1" output="64" pads_begin="0,0" pads_end="0,0" quantization_level="I8" strides="1,1"/>
			<input>
				<port id="0">
					<dim>1</dim>
					<dim>224</dim>
					<dim>2</dim>
					<dim>3</dim>
				</port>
			</input>
			<output>
				<port id="1">
					<dim>1</dim>
					<dim>64</dim>
					<dim>2</dim>
					<dim>3</dim>
				</port>
			</output>
			<blobs>
				<biases offset="3128248" size="256"/>
				<weights offset="3128504" size="57344"/>
			</blobs>
		</layer>
		<layer name="relu9_1" type="ReLU" precision="FP32" id="89">
			<input>
				<port id="0">
					<dim>1</dim>
					<dim>64</dim>
					<dim>2</dim>
					<dim>3</dim>
				</port>
			</input>
			<output>
				<port id="1">
					<dim>1</dim>
					<dim>64</dim>
					<dim>2</dim>
					<dim>3</dim>
				</port>
			</output>
		</layer>
		<layer name="conv9_2/dw" type="Convolution" precision="FP32" id="90">
			<data dilations="1,1" group="64" kernel="3,3" output="64" pads_begin="1,1" pads_end="1,1" quantization_level="I8" strides="2,2"/>
			<input>
				<port id="0">
					<dim>1</dim>
					<dim>64</dim>
					<dim>2</dim>
					<dim>3</dim>
				</port>
			</input>
			<output>
				<port id="1">
					<dim>1</dim>
					<dim>64</dim>
					<dim>1</dim>
					<dim>2</dim>
				</port>
			</output>
			<blobs>
				<biases offset="3185848" size="256"/>
				<weights offset="3186104" size="2304"/>
			</blobs>
		</layer>
		<layer name="relu9_2/dw" type="ReLU" precision="FP32" id="91">
			<input>
				<port id="0">
					<dim>1</dim>
					<dim>64</dim>
					<dim>1</dim>
					<dim>2</dim>
				</port>
			</input>
			<output>
				<port id="1">
					<dim>1</dim>
					<dim>64</dim>
					<dim>1</dim>
					<dim>2</dim>
				</port>
			</output>
		</layer>
		<layer name="conv9_2" type="Convolution" precision="FP32" id="92">
			<data dilations="1,1" group="1" kernel="1,1" output="128" pads_begin="0,0" pads_end="0,0" quantization_level="I8" strides="1,1"/>
			<input>
				<port id="0">
					<dim>1</dim>
					<dim>64</dim>
					<dim>1</dim>
					<dim>2</dim>
				</port>
			</input>
			<output>
				<port id="1">
					<dim>1</dim>
					<dim>128</dim>
					<dim>1</dim>
					<dim>2</dim>
				</port>
			</output>
			<blobs>
				<biases offset="3188408" size="512"/>
				<weights offset="3188920" size="32768"/>
			</blobs>
		</layer>
		<layer name="relu9_2" type="ReLU" precision="FP32" id="93">
			<input>
				<port id="0">
					<dim>1</dim>
					<dim>128</dim>
					<dim>1</dim>
					<dim>2</dim>
				</port>
			</input>
			<output>
				<port id="1">
					<dim>1</dim>
					<dim>128</dim>
					<dim>1</dim>
					<dim>2</dim>
				</port>
			</output>
		</layer>
		<layer name="conv9_2_mbox_priorbox" type="PriorBox" precision="FP32" id="94">
			<data aspect_ratio="2.0" clip="0" density="" fixed_ratio="" fixed_size="" flip="1" max_size="403.20001220703125" min_size="345.6000061035156" offset="0.5" variance="0.10000000149011612,0.10000000149011612,0.20000000298023224,0.20000000298023224"/>
			<input>
				<port id="0">
					<dim>1</dim>
					<dim>128</dim>
					<dim>1</dim>
					<dim>2</dim>
				</port>
				<port id="1">
					<dim>1</dim>
					<dim>3</dim>
					<dim>384</dim>
					<dim>672</dim>
				</port>
			</input>
			<output>
				<port id="2">
					<dim>1</dim>
					<dim>2</dim>
					<dim>32</dim>
				</port>
			</output>
		</layer>
		<layer name="conv9_2_mbox_loc" type="Convolution" precision="FP32" id="95">
			<data dilations="1,1" group="1" kernel="3,3" output="16" pads_begin="1,1" pads_end="1,1" quantization_level="I8" strides="1,1"/>
			<input>
				<port id="0">
					<dim>1</dim>
					<dim>128</dim>
					<dim>1</dim>
					<dim>2</dim>
				</port>
			</input>
			<output>
				<port id="1">
					<dim>1</dim>
					<dim>16</dim>
					<dim>1</dim>
					<dim>2</dim>
				</port>
			</output>
			<blobs>
				<biases offset="3221688" size="64"/>
				<weights offset="3221752" size="73728"/>
			</blobs>
		</layer>
		<layer name="conv9_2_mbox_loc_perm" type="Permute" precision="FP32" id="96">
			<data order="0,2,3,1"/>
			<input>
				<port id="0">
					<dim>1</dim>
					<dim>16</dim>
					<dim>1</dim>
					<dim>2</dim>
				</port>
			</input>
			<output>
				<port id="1">
					<dim>1</dim>
					<dim>1</dim>
					<dim>2</dim>
					<dim>16</dim>
				</port>
			</output>
		</layer>
		<layer name="conv9_2_mbox_loc_flat" type="Flatten" precision="FP32" id="97">
			<data axis="1" end_axis="-1"/>
			<input>
				<port id="0">
					<dim>1</dim>
					<dim>1</dim>
					<dim>2</dim>
					<dim>16</dim>
				</port>
			</input>
			<output>
				<port id="1">
					<dim>1</dim>
					<dim>32</dim>
				</port>
			</output>
		</layer>
		<layer name="conv9_2_mbox_conf" type="Convolution" precision="FP32" id="98">
			<data dilations="1,1" group="1" kernel="3,3" output="8" pads_begin="1,1" pads_end="1,1" quantization_level="I8" strides="1,1"/>
			<input>
				<port id="0">
					<dim>1</dim>
					<dim>128</dim>
					<dim>1</dim>
					<dim>2</dim>
				</port>
			</input>
			<output>
				<port id="1">
					<dim>1</dim>
					<dim>8</dim>
					<dim>1</dim>
					<dim>2</dim>
				</port>
			</output>
			<blobs>
				<biases offset="3295480" size="32"/>
				<weights offset="3295512" size="36864"/>
			</blobs>
		</layer>
		<layer name="conv9_2_mbox_conf_perm" type="Permute" precision="FP32" id="99">
			<data order="0,2,3,1"/>
			<input>
				<port id="0">
					<dim>1</dim>
					<dim>8</dim>
					<dim>1</dim>
					<dim>2</dim>
				</port>
			</input>
			<output>
				<port id="1">
					<dim>1</dim>
					<dim>1</dim>
					<dim>2</dim>
					<dim>8</dim>
				</port>
			</output>
		</layer>
		<layer name="conv9_2_mbox_conf_flat" type="Flatten" precision="FP32" id="100">
			<data axis="1" end_axis="-1"/>
			<input>
				<port id="0">
					<dim>1</dim>
					<dim>1</dim>
					<dim>2</dim>
					<dim>8</dim>
				</port>
			</input>
			<output>
				<port id="1">
					<dim>1</dim>
					<dim>16</dim>
				</port>
			</output>
		</layer>
		<layer name="conv8_2_mbox_priorbox" type="PriorBox" precision="FP32" id="101">
			<data aspect_ratio="2.0" clip="0" density="" fixed_ratio="" fixed_size="" flip="1" max_size="345.6000061035156" min_size="288.0" offset="0.5" variance="0.10000000149011612,0.10000000149011612,0.20000000298023224,0.20000000298023224"/>
			<input>
				<port id="0">
					<dim>1</dim>
					<dim>224</dim>
					<dim>2</dim>
					<dim>3</dim>
				</port>
				<port id="1">
					<dim>1</dim>
					<dim>3</dim>
					<dim>384</dim>
					<dim>672</dim>
				</port>
			</input>
			<output>
				<port id="2">
					<dim>1</dim>
					<dim>2</dim>
					<dim>96</dim>
				</port>
			</output>
		</layer>
		<layer name="conv8_2_mbox_loc" type="Convolution" precision="FP32" id="102">
			<data dilations="1,1" group="1" kernel="3,3" output="16" pads_begin="1,1" pads_end="1,1" quantization_level="I8" strides="1,1"/>
			<input>
				<port id="0">
					<dim>1</dim>
					<dim>224</dim>
					<dim>2</dim>
					<dim>3</dim>
				</port>
			</input>
			<output>
				<port id="1">
					<dim>1</dim>
					<dim>16</dim>
					<dim>2</dim>
					<dim>3</dim>
				</port>
			</output>
			<blobs>
				<biases offset="3332376" size="64"/>
				<weights offset="3332440" size="129024"/>
			</blobs>
		</layer>
		<layer name="conv8_2_mbox_loc_perm" type="Permute" precision="FP32" id="103">
			<data order="0,2,3,1"/>
			<input>
				<port id="0">
					<dim>1</dim>
					<dim>16</dim>
					<dim>2</dim>
					<dim>3</dim>
				</port>
			</input>
			<output>
				<port id="1">
					<dim>1</dim>
					<dim>2</dim>
					<dim>3</dim>
					<dim>16</dim>
				</port>
			</output>
		</layer>
		<layer name="conv8_2_mbox_loc_flat" type="Flatten" precision="FP32" id="104">
			<data axis="1" end_axis="-1"/>
			<input>
				<port id="0">
					<dim>1</dim>
					<dim>2</dim>
					<dim>3</dim>
					<dim>16</dim>
				</port>
			</input>
			<output>
				<port id="1">
					<dim>1</dim>
					<dim>96</dim>
				</port>
			</output>
		</layer>
		<layer name="conv8_2_mbox_conf" type="Convolution" precision="FP32" id="105">
			<data dilations="1,1" group="1" kernel="3,3" output="8" pads_begin="1,1" pads_end="1,1" quantization_level="I8" strides="1,1"/>
			<input>
				<port id="0">
					<dim>1</dim>
					<dim>224</dim>
					<dim>2</dim>
					<dim>3</dim>
				</port>
			</input>
			<output>
				<port id="1">
					<dim>1</dim>
					<dim>8</dim>
					<dim>2</dim>
					<dim>3</dim>
				</port>
			</output>
			<blobs>
				<biases offset="3461464" size="32"/>
				<weights offset="3461496" size="64512"/>
			</blobs>
		</layer>
		<layer name="conv8_2_mbox_conf_perm" type="Permute" precision="FP32" id="106">
			<data order="0,2,3,1"/>
			<input>
				<port id="0">
					<dim>1</dim>
					<dim>8</dim>
					<dim>2</dim>
					<dim>3</dim>
				</port>
			</input>
			<output>
				<port id="1">
					<dim>1</dim>
					<dim>2</dim>
					<dim>3</dim>
					<dim>8</dim>
				</port>
			</output>
		</layer>
		<layer name="conv8_2_mbox_conf_flat" type="Flatten" precision="FP32" id="107">
			<data axis="1" end_axis="-1"/>
			<input>
				<port id="0">
					<dim>1</dim>
					<dim>2</dim>
					<dim>3</dim>
					<dim>8</dim>
				</port>
			</input>
			<output>
				<port id="1">
					<dim>1</dim>
					<dim>48</dim>
				</port>
			</output>
		</layer>
		<layer name="conv7_2_mbox_priorbox" type="PriorBox" precision="FP32" id="108">
			<data aspect_ratio="2.0,3.0" clip="0" density="" fixed_ratio="" fixed_size="" flip="1" max_size="288.0" min_size="230.39999389648438" offset="0.5" step="128.0" variance="0.10000000149011612,0.10000000149011612,0.20000000298023224,0.20000000298023224"/>
			<input>
				<port id="0">
					<dim>1</dim>
					<dim>200</dim>
					<dim>3</dim>
					<dim>6</dim>
				</port>
				<port id="1">
					<dim>1</dim>
					<dim>3</dim>
					<dim>384</dim>
					<dim>672</dim>
				</port>
			</input>
			<output>
				<port id="2">
					<dim>1</dim>
					<dim>2</dim>
					<dim>432</dim>
				</port>
			</output>
		</layer>
		<layer name="conv7_2_mbox_loc" type="Convolution" precision="FP32" id="109">
			<data dilations="1,1" group="1" kernel="3,3" output="24" pads_begin="1,1" pads_end="1,1" quantization_level="I8" strides="1,1"/>
			<input>
				<port id="0">
					<dim>1</dim>
					<dim>200</dim>
					<dim>3</dim>
					<dim>6</dim>
				</port>
			</input>
			<output>
				<port id="1">
					<dim>1</dim>
					<dim>24</dim>
					<dim>3</dim>
					<dim>6</dim>
				</port>
			</output>
			<blobs>
				<biases offset="3526008" size="96"/>
				<weights offset="3526104" size="172800"/>
			</blobs>
		</layer>
		<layer name="conv7_2_mbox_loc_perm" type="Permute" precision="FP32" id="110">
			<data order="0,2,3,1"/>
			<input>
				<port id="0">
					<dim>1</dim>
					<dim>24</dim>
					<dim>3</dim>
					<dim>6</dim>
				</port>
			</input>
			<output>
				<port id="1">
					<dim>1</dim>
					<dim>3</dim>
					<dim>6</dim>
					<dim>24</dim>
				</port>
			</output>
		</layer>
		<layer name="conv7_2_mbox_loc_flat" type="Flatten" precision="FP32" id="111">
			<data axis="1" end_axis="-1"/>
			<input>
				<port id="0">
					<dim>1</dim>
					<dim>3</dim>
					<dim>6</dim>
					<dim>24</dim>
				</port>
			</input>
			<output>
				<port id="1">
					<dim>1</dim>
					<dim>432</dim>
				</port>
			</output>
		</layer>
		<layer name="conv7_2_mbox_conf" type="Convolution" precision="FP32" id="112">
			<data dilations="1,1" group="1" kernel="3,3" output="12" pads_begin="1,1" pads_end="1,1" quantization_level="I8" strides="1,1"/>
			<input>
				<port id="0">
					<dim>1</dim>
					<dim>200</dim>
					<dim>3</dim>
					<dim>6</dim>
				</port>
			</input>
			<output>
				<port id="1">
					<dim>1</dim>
					<dim>12</dim>
					<dim>3</dim>
					<dim>6</dim>
				</port>
			</output>
			<blobs>
				<biases offset="3698904" size="48"/>
				<weights offset="3698952" size="86400"/>
			</blobs>
		</layer>
		<layer name="conv7_2_mbox_conf_perm" type="Permute" precision="FP32" id="113">
			<data order="0,2,3,1"/>
			<input>
				<port id="0">
					<dim>1</dim>
					<dim>12</dim>
					<dim>3</dim>
					<dim>6</dim>
				</port>
			</input>
			<output>
				<port id="1">
					<dim>1</dim>
					<dim>3</dim>
					<dim>6</dim>
					<dim>12</dim>
				</port>
			</output>
		</layer>
		<layer name="conv7_2_mbox_conf_flat" type="Flatten" precision="FP32" id="114">
			<data axis="1" end_axis="-1"/>
			<input>
				<port id="0">
					<dim>1</dim>
					<dim>3</dim>
					<dim>6</dim>
					<dim>12</dim>
				</port>
			</input>
			<output>
				<port id="1">
					<dim>1</dim>
					<dim>216</dim>
				</port>
			</output>
		</layer>
		<layer name="conv6_2_mbox_priorbox" type="PriorBox" precision="FP32" id="115">
			<data aspect_ratio="2.0,3.0" clip="0" density="" fixed_ratio="" fixed_size="" flip="1" max_size="230.39999389648438" min_size="172.8000030517578" offset="0.5" step="64.0" variance="0.10000000149011612,0.10000000149011612,0.20000000298023224,0.20000000298023224"/>
			<input>
				<port id="0">
					<dim>1</dim>
					<dim>152</dim>
					<dim>6</dim>
					<dim>11</dim>
				</port>
				<port id="1">
					<dim>1</dim>
					<dim>3</dim>
					<dim>384</dim>
					<dim>672</dim>
				</port>
			</input>
			<output>
				<port id="2">
					<dim>1</dim>
					<dim>2</dim>
					<dim>1584</dim>
				</port>
			</output>
		</layer>
		<layer name="conv6_2_mbox_loc" type="Convolution" precision="FP32" id="116">
			<data dilations="1,1" group="1" kernel="3,3" output="24" pads_begin="1,1" pads_end="1,1" quantization_level="I8" strides="1,1"/>
			<input>
				<port id="0">
					<dim>1</dim>
					<dim>152</dim>
					<dim>6</dim>
					<dim>11</dim>
				</port>
			</input>
			<output>
				<port id="1">
					<dim>1</dim>
					<dim>24</dim>
					<dim>6</dim>
					<dim>11</dim>
				</port>
			</output>
			<blobs>
				<biases offset="3785352" size="96"/>
				<weights offset="3785448" size="131328"/>
			</blobs>
		</layer>
		<layer name="conv6_2_mbox_loc_perm" type="Permute" precision="FP32" id="117">
			<data order="0,2,3,1"/>
			<input>
				<port id="0">
					<dim>1</dim>
					<dim>24</dim>
					<dim>6</dim>
					<dim>11</dim>
				</port>
			</input>
			<output>
				<port id="1">
					<dim>1</dim>
					<dim>6</dim>
					<dim>11</dim>
					<dim>24</dim>
				</port>
			</output>
		</layer>
		<layer name="conv6_2_mbox_loc_flat" type="Flatten" precision="FP32" id="118">
			<data axis="1" end_axis="-1"/>
			<input>
				<port id="0">
					<dim>1</dim>
					<dim>6</dim>
					<dim>11</dim>
					<dim>24</dim>
				</port>
			</input>
			<output>
				<port id="1">
					<dim>1</dim>
					<dim>1584</dim>
				</port>
			</output>
		</layer>
		<layer name="conv6_2_mbox_conf" type="Convolution" precision="FP32" id="119">
			<data dilations="1,1" group="1" kernel="3,3" output="12" pads_begin="1,1" pads_end="1,1" quantization_level="I8" strides="1,1"/>
			<input>
				<port id="0">
					<dim>1</dim>
					<dim>152</dim>
					<dim>6</dim>
					<dim>11</dim>
				</port>
			</input>
			<output>
				<port id="1">
					<dim>1</dim>
					<dim>12</dim>
					<dim>6</dim>
					<dim>11</dim>
				</port>
			</output>
			<blobs>
				<biases offset="3916776" size="48"/>
				<weights offset="3916824" size="65664"/>
			</blobs>
		</layer>
		<layer name="conv6_2_mbox_conf_perm" type="Permute" precision="FP32" id="120">
			<data order="0,2,3,1"/>
			<input>
				<port id="0">
					<dim>1</dim>
					<dim>12</dim>
					<dim>6</dim>
					<dim>11</dim>
				</port>
			</input>
			<output>
				<port id="1">
					<dim>1</dim>
					<dim>6</dim>
					<dim>11</dim>
					<dim>12</dim>
				</port>
			</output>
		</layer>
		<layer name="conv6_2_mbox_conf_flat" type="Flatten" precision="FP32" id="121">
			<data axis="1" end_axis="-1"/>
			<input>
				<port id="0">
					<dim>1</dim>
					<dim>6</dim>
					<dim>11</dim>
					<dim>12</dim>
				</port>
			</input>
			<output>
				<port id="1">
					<dim>1</dim>
					<dim>792</dim>
				</port>
			</output>
		</layer>
		<layer name="conv4_3_norm_mbox_priorbox" type="PriorBox" precision="FP32" id="122">
			<data aspect_ratio="2.0" clip="0" density="" fixed_ratio="" fixed_size="" flip="1" max_size="76.80000305175781" min_size="38.400001525878906" offset="0.5" step="16.0" variance="0.10000000149011612,0.10000000149011612,0.20000000298023224,0.20000000298023224"/>
			<input>
				<port id="0">
					<dim>1</dim>
					<dim>192</dim>
					<dim>24</dim>
					<dim>42</dim>
				</port>
				<port id="1">
					<dim>1</dim>
					<dim>3</dim>
					<dim>384</dim>
					<dim>672</dim>
				</port>
			</input>
			<output>
				<port id="2">
					<dim>1</dim>
					<dim>2</dim>
					<dim>16128</dim>
				</port>
			</output>
		</layer>
		<layer name="conv4_3_norm_mbox_loc" type="Convolution" precision="FP32" id="123">
			<data dilations="1,1" group="1" kernel="3,3" output="16" pads_begin="1,1" pads_end="1,1" quantization_level="I8" strides="1,1"/>
			<input>
				<port id="0">
					<dim>1</dim>
					<dim>192</dim>
					<dim>24</dim>
					<dim>42</dim>
				</port>
			</input>
			<output>
				<port id="1">
					<dim>1</dim>
					<dim>16</dim>
					<dim>24</dim>
					<dim>42</dim>
				</port>
			</output>
			<blobs>
				<biases offset="3982488" size="64"/>
				<weights offset="3982552" size="110592"/>
			</blobs>
		</layer>
		<layer name="conv4_3_norm_mbox_loc_perm" type="Permute" precision="FP32" id="124">
			<data order="0,2,3,1"/>
			<input>
				<port id="0">
					<dim>1</dim>
					<dim>16</dim>
					<dim>24</dim>
					<dim>42</dim>
				</port>
			</input>
			<output>
				<port id="1">
					<dim>1</dim>
					<dim>24</dim>
					<dim>42</dim>
					<dim>16</dim>
				</port>
			</output>
		</layer>
		<layer name="conv4_3_norm_mbox_loc_flat" type="Flatten" precision="FP32" id="125">
			<data axis="1" end_axis="-1"/>
			<input>
				<port id="0">
					<dim>1</dim>
					<dim>24</dim>
					<dim>42</dim>
					<dim>16</dim>
				</port>
			</input>
			<output>
				<port id="1">
					<dim>1</dim>
					<dim>16128</dim>
				</port>
			</output>
		</layer>
		<layer name="conv4_3_norm_mbox_conf" type="Convolution" precision="FP32" id="126">
			<data dilations="1,1" group="1" kernel="3,3" output="8" pads_begin="1,1" pads_end="1,1" quantization_level="I8" strides="1,1"/>
			<input>
				<port id="0">
					<dim>1</dim>
					<dim>192</dim>
					<dim>24</dim>
					<dim>42</dim>
				</port>
			</input>
			<output>
				<port id="1">
					<dim>1</dim>
					<dim>8</dim>
					<dim>24</dim>
					<dim>42</dim>
				</port>
			</output>
			<blobs>
				<biases offset="4093144" size="32"/>
				<weights offset="4093176" size="55296"/>
			</blobs>
		</layer>
		<layer name="conv4_3_norm_mbox_conf_perm" type="Permute" precision="FP32" id="127">
			<data order="0,2,3,1"/>
			<input>
				<port id="0">
					<dim>1</dim>
					<dim>8</dim>
					<dim>24</dim>
					<dim>42</dim>
				</port>
			</input>
			<output>
				<port id="1">
					<dim>1</dim>
					<dim>24</dim>
					<dim>42</dim>
					<dim>8</dim>
				</port>
			</output>
		</layer>
		<layer name="conv4_3_norm_mbox_conf_flat" type="Flatten" precision="FP32" id="128">
			<data axis="1" end_axis="-1"/>
			<input>
				<port id="0">
					<dim>1</dim>
					<dim>24</dim>
					<dim>42</dim>
					<dim>8</dim>
				</port>
			</input>
			<output>
				<port id="1">
					<dim>1</dim>
					<dim>8064</dim>
				</port>
			</output>
		</layer>
		<layer name="conv4_3_0_norm_mbox_priorbox" type="PriorBox" precision="FP32" id="129">
			<data aspect_ratio="2.0" clip="0" density="" fixed_ratio="" fixed_size="" flip="1" max_size="38.400001525878906" min_size="16.0" offset="0.5" step="16.0" variance="0.10000000149011612,0.10000000149011612,0.20000000298023224,0.20000000298023224"/>
			<input>
				<port id="0">
					<dim>1</dim>
					<dim>192</dim>
					<dim>24</dim>
					<dim>42</dim>
				</port>
				<port id="1">
					<dim>1</dim>
					<dim>3</dim>
					<dim>384</dim>
					<dim>672</dim>
				</port>
			</input>
			<output>
				<port id="2">
					<dim>1</dim>
					<dim>2</dim>
					<dim>16128</dim>
				</port>
			</output>
		</layer>
		<layer name="mbox_priorbox" type="Concat" precision="FP32" id="130">
			<data axis="2"/>
			<input>
				<port id="0">
					<dim>1</dim>
					<dim>2</dim>
					<dim>16128</dim>
				</port>
				<port id="1">
					<dim>1</dim>
					<dim>2</dim>
					<dim>16128</dim>
				</port>
				<port id="2">
					<dim>1</dim>
					<dim>2</dim>
					<dim>6048</dim>
				</port>
				<port id="3">
					<dim>1</dim>
					<dim>2</dim>
					<dim>6048</dim>
				</port>
				<port id="4">
					<dim>1</dim>
					<dim>2</dim>
					<dim>1584</dim>
				</port>
				<port id="5">
					<dim>1</dim>
					<dim>2</dim>
					<dim>432</dim>
				</port>
				<port id="6">
					<dim>1</dim>
					<dim>2</dim>
					<dim>96</dim>
				</port>
				<port id="7">
					<dim>1</dim>
					<dim>2</dim>
					<dim>32</dim>
				</port>
			</input>
			<output>
				<port id="8">
					<dim>1</dim>
					<dim>2</dim>
					<dim>46496</dim>
				</port>
			</output>
		</layer>
		<layer name="conv4_3_0_norm_mbox_loc" type="Convolution" precision="FP32" id="131">
			<data dilations="1,1" group="1" kernel="3,3" output="16" pads_begin="1,1" pads_end="1,1" quantization_level="I8" strides="1,1"/>
			<input>
				<port id="0">
					<dim>1</dim>
					<dim>192</dim>
					<dim>24</dim>
					<dim>42</dim>
				</port>
			</input>
			<output>
				<port id="1">
					<dim>1</dim>
					<dim>16</dim>
					<dim>24</dim>
					<dim>42</dim>
				</port>
			</output>
			<blobs>
				<biases offset="4148472" size="64"/>
				<weights offset="4148536" size="110592"/>
			</blobs>
		</layer>
		<layer name="conv4_3_0_norm_mbox_loc_perm" type="Permute" precision="FP32" id="132">
			<data order="0,2,3,1"/>
			<input>
				<port id="0">
					<dim>1</dim>
					<dim>16</dim>
					<dim>24</dim>
					<dim>42</dim>
				</port>
			</input>
			<output>
				<port id="1">
					<dim>1</dim>
					<dim>24</dim>
					<dim>42</dim>
					<dim>16</dim>
				</port>
			</output>
		</layer>
		<layer name="conv4_3_0_norm_mbox_loc_flat" type="Flatten" precision="FP32" id="133">
			<data axis="1" end_axis="-1"/>
			<input>
				<port id="0">
					<dim>1</dim>
					<dim>24</dim>
					<dim>42</dim>
					<dim>16</dim>
				</port>
			</input>
			<output>
				<port id="1">
					<dim>1</dim>
					<dim>16128</dim>
				</port>
			</output>
		</layer>
		<layer name="mbox_loc" type="Concat" precision="FP32" id="134">
			<data axis="1"/>
			<input>
				<port id="0">
					<dim>1</dim>
					<dim>16128</dim>
				</port>
				<port id="1">
					<dim>1</dim>
					<dim>16128</dim>
				</port>
				<port id="2">
					<dim>1</dim>
					<dim>6048</dim>
				</port>
				<port id="3">
					<dim>1</dim>
					<dim>6048</dim>
				</port>
				<port id="4">
					<dim>1</dim>
					<dim>1584</dim>
				</port>
				<port id="5">
					<dim>1</dim>
					<dim>432</dim>
				</port>
				<port id="6">
					<dim>1</dim>
					<dim>96</dim>
				</port>
				<port id="7">
					<dim>1</dim>
					<dim>32</dim>
				</port>
			</input>
			<output>
				<port id="8">
					<dim>1</dim>
					<dim>46496</dim>
				</port>
			</output>
		</layer>
		<layer name="conv4_3_0_norm_mbox_conf" type="Convolution" precision="FP32" id="135">
			<data dilations="1,1" group="1" kernel="3,3" output="8" pads_begin="1,1" pads_end="1,1" quantization_level="I8" strides="1,1"/>
			<input>
				<port id="0">
					<dim>1</dim>
					<dim>192</dim>
					<dim>24</dim>
					<dim>42</dim>
				</port>
			</input>
			<output>
				<port id="1">
					<dim>1</dim>
					<dim>8</dim>
					<dim>24</dim>
					<dim>42</dim>
				</port>
			</output>
			<blobs>
				<biases offset="4259128" size="32"/>
				<weights offset="4259160" size="55296"/>
			</blobs>
		</layer>
		<layer name="conv4_3_0_norm_mbox_conf_perm" type="Permute" precision="FP32" id="136">
			<data order="0,2,3,1"/>
			<input>
				<port id="0">
					<dim>1</dim>
					<dim>8</dim>
					<dim>24</dim>
					<dim>42</dim>
				</port>
			</input>
			<output>
				<port id="1">
					<dim>1</dim>
					<dim>24</dim>
					<dim>42</dim>
					<dim>8</dim>
				</port>
			</output>
		</layer>
		<layer name="conv4_3_0_norm_mbox_conf_flat" type="Flatten" precision="FP32" id="137">
			<data axis="1" end_axis="-1"/>
			<input>
				<port id="0">
					<dim>1</dim>
					<dim>24</dim>
					<dim>42</dim>
					<dim>8</dim>
				</port>
			</input>
			<output>
				<port id="1">
					<dim>1</dim>
					<dim>8064</dim>
				</port>
			</output>
		</layer>
		<layer name="mbox_conf" type="Concat" precision="FP32" id="138">
			<data axis="1"/>
			<input>
				<port id="0">
					<dim>1</dim>
					<dim>8064</dim>
				</port>
				<port id="1">
					<dim>1</dim>
					<dim>8064</dim>
				</port>
				<port id="2">
					<dim>1</dim>
					<dim>3024</dim>
				</port>
				<port id="3">
					<dim>1</dim>
					<dim>3024</dim>
				</port>
				<port id="4">
					<dim>1</dim>
					<dim>792</dim>
				</port>
				<port id="5">
					<dim>1</dim>
					<dim>216</dim>
				</port>
				<port id="6">
					<dim>1</dim>
					<dim>48</dim>
				</port>
				<port id="7">
					<dim>1</dim>
					<dim>16</dim>
				</port>
			</input>
			<output>
				<port id="8">
					<dim>1</dim>
					<dim>23248</dim>
				</port>
			</output>
		</layer>
		<layer name="222/Output_0/Data__const" type="Const" precision="I32" id="139">
			<output>
				<port id="0">
					<dim>3</dim>
				</port>
			</output>
			<blobs>
				<custom offset="4314456" size="12"/>
			</blobs>
		</layer>
		<layer name="mbox_conf_reshape" type="Reshape" precision="FP32" id="140">
			<data axis="0" dim="" num_axes="-1"/>
			<input>
				<port id="0">
					<dim>1</dim>
					<dim>23248</dim>
				</port>
				<port id="1">
					<dim>3</dim>
				</port>
			</input>
			<output>
				<port id="2">
					<dim>1</dim>
					<dim>11624</dim>
					<dim>2</dim>
				</port>
			</output>
		</layer>
		<layer name="mbox_conf_softmax" type="SoftMax" precision="FP32" id="141">
			<data axis="2"/>
			<input>
				<port id="0">
					<dim>1</dim>
					<dim>11624</dim>
					<dim>2</dim>
				</port>
			</input>
			<output>
				<port id="1">
					<dim>1</dim>
					<dim>11624</dim>
					<dim>2</dim>
				</port>
			</output>
		</layer>
		<layer name="mbox_conf_flatten" type="Flatten" precision="FP32" id="142">
			<data axis="1" end_axis="-1"/>
			<input>
				<port id="0">
					<dim>1</dim>
					<dim>11624</dim>
					<dim>2</dim>
				</port>
			</input>
			<output>
				<port id="1">
					<dim>1</dim>
					<dim>23248</dim>
				</port>
			</output>
		</layer>
		<layer name="detection_out" type="DetectionOutput" precision="FP32" id="143">
			<data background_label_id="0" code_type="caffe.PriorBoxParameter.CENTER_SIZE" confidence_threshold="0.009999999776482582" eta="1.0" input_height="1" input_width="1" keep_top_k="200" nms_threshold="0.44999998807907104" normalized="1" num_classes="2" share_location="1" top_k="400" variance_encoded_in_target="0" visualize="False"/>
			<input>
				<port id="0">
					<dim>1</dim>
					<dim>46496</dim>
				</port>
				<port id="1">
					<dim>1</dim>
					<dim>23248</dim>
				</port>
				<port id="2">
					<dim>1</dim>
					<dim>2</dim>
					<dim>46496</dim>
				</port>
			</input>
			<output>
				<port id="3">
					<dim>1</dim>
					<dim>1</dim>
					<dim>200</dim>
					<dim>7</dim>
				</port>
			</output>
		</layer>
	</layers>
	<edges>
		<edge from-layer="0" from-port="0" to-layer="1" to-port="0"/>
		<edge from-layer="1" from-port="1" to-layer="2" to-port="0"/>
		<edge from-layer="1" from-port="1" to-layer="129" to-port="1"/>
		<edge from-layer="1" from-port="1" to-layer="122" to-port="1"/>
		<edge from-layer="1" from-port="1" to-layer="115" to-port="1"/>
		<edge from-layer="1" from-port="1" to-layer="108" to-port="1"/>
		<edge from-layer="1" from-port="1" to-layer="101" to-port="1"/>
		<edge from-layer="1" from-port="1" to-layer="94" to-port="1"/>
		<edge from-layer="1" from-port="1" to-layer="63" to-port="1"/>
		<edge from-layer="1" from-port="1" to-layer="56" to-port="1"/>
		<edge from-layer="2" from-port="1" to-layer="3" to-port="0"/>
		<edge from-layer="3" from-port="1" to-layer="4" to-port="0"/>
		<edge from-layer="4" from-port="1" to-layer="5" to-port="0"/>
		<edge from-layer="5" from-port="1" to-layer="6" to-port="0"/>
		<edge from-layer="6" from-port="1" to-layer="7" to-port="0"/>
		<edge from-layer="7" from-port="1" to-layer="8" to-port="0"/>
		<edge from-layer="8" from-port="1" to-layer="9" to-port="0"/>
		<edge from-layer="9" from-port="1" to-layer="10" to-port="0"/>
		<edge from-layer="10" from-port="1" to-layer="11" to-port="0"/>
		<edge from-layer="11" from-port="1" to-layer="12" to-port="0"/>
		<edge from-layer="12" from-port="1" to-layer="13" to-port="0"/>
		<edge from-layer="13" from-port="1" to-layer="14" to-port="0"/>
		<edge from-layer="14" from-port="1" to-layer="15" to-port="0"/>
		<edge from-layer="15" from-port="1" to-layer="16" to-port="0"/>
		<edge from-layer="16" from-port="1" to-layer="17" to-port="0"/>
		<edge from-layer="17" from-port="1" to-layer="18" to-port="0"/>
		<edge from-layer="18" from-port="1" to-layer="19" to-port="0"/>
		<edge from-layer="19" from-port="1" to-layer="20" to-port="0"/>
		<edge from-layer="20" from-port="1" to-layer="21" to-port="0"/>
		<edge from-layer="21" from-port="1" to-layer="22" to-port="0"/>
		<edge from-layer="22" from-port="1" to-layer="23" to-port="0"/>
		<edge from-layer="23" from-port="1" to-layer="24" to-port="0"/>
		<edge from-layer="24" from-port="1" to-layer="25" to-port="0"/>
		<edge from-layer="25" from-port="1" to-layer="26" to-port="0"/>
		<edge from-layer="26" from-port="1" to-layer="27" to-port="0"/>
		<edge from-layer="27" from-port="1" to-layer="28" to-port="0"/>
		<edge from-layer="28" from-port="1" to-layer="29" to-port="0"/>
		<edge from-layer="29" from-port="1" to-layer="30" to-port="0"/>
		<edge from-layer="30" from-port="1" to-layer="31" to-port="0"/>
		<edge from-layer="31" from-port="1" to-layer="32" to-port="0"/>
		<edge from-layer="32" from-port="1" to-layer="33" to-port="0"/>
		<edge from-layer="33" from-port="1" to-layer="34" to-port="0"/>
		<edge from-layer="34" from-port="1" to-layer="35" to-port="0"/>
		<edge from-layer="35" from-port="1" to-layer="36" to-port="0"/>
		<edge from-layer="36" from-port="1" to-layer="37" to-port="0"/>
		<edge from-layer="37" from-port="1" to-layer="38" to-port="0"/>
		<edge from-layer="38" from-port="1" to-layer="39" to-port="0"/>
		<edge from-layer="39" from-port="1" to-layer="40" to-port="0"/>
		<edge from-layer="40" from-port="1" to-layer="41" to-port="0"/>
		<edge from-layer="41" from-port="1" to-layer="42" to-port="0"/>
		<edge from-layer="42" from-port="1" to-layer="43" to-port="0"/>
		<edge from-layer="43" from-port="1" to-layer="44" to-port="0"/>
		<edge from-layer="44" from-port="1" to-layer="45" to-port="0"/>
		<edge from-layer="45" from-port="1" to-layer="46" to-port="0"/>
		<edge from-layer="46" from-port="1" to-layer="47" to-port="0"/>
		<edge from-layer="47" from-port="1" to-layer="135" to-port="0"/>
		<edge from-layer="47" from-port="1" to-layer="131" to-port="0"/>
		<edge from-layer="47" from-port="1" to-layer="129" to-port="0"/>
		<edge from-layer="47" from-port="1" to-layer="126" to-port="0"/>
		<edge from-layer="47" from-port="1" to-layer="123" to-port="0"/>
		<edge from-layer="47" from-port="1" to-layer="122" to-port="0"/>
		<edge from-layer="47" from-port="1" to-layer="48" to-port="0"/>
		<edge from-layer="48" from-port="1" to-layer="49" to-port="0"/>
		<edge from-layer="49" from-port="1" to-layer="50" to-port="0"/>
		<edge from-layer="50" from-port="1" to-layer="51" to-port="0"/>
		<edge from-layer="51" from-port="1" to-layer="52" to-port="0"/>
		<edge from-layer="52" from-port="1" to-layer="53" to-port="0"/>
		<edge from-layer="53" from-port="1" to-layer="54" to-port="0"/>
		<edge from-layer="54" from-port="1" to-layer="55" to-port="0"/>
		<edge from-layer="55" from-port="1" to-layer="70" to-port="0"/>
		<edge from-layer="55" from-port="1" to-layer="67" to-port="0"/>
		<edge from-layer="55" from-port="1" to-layer="64" to-port="0"/>
		<edge from-layer="55" from-port="1" to-layer="63" to-port="0"/>
		<edge from-layer="55" from-port="1" to-layer="60" to-port="0"/>
		<edge from-layer="55" from-port="1" to-layer="57" to-port="0"/>
		<edge from-layer="55" from-port="1" to-layer="56" to-port="0"/>
		<edge from-layer="56" from-port="2" to-layer="130" to-port="3"/>
		<edge from-layer="57" from-port="1" to-layer="58" to-port="0"/>
		<edge from-layer="58" from-port="1" to-layer="59" to-port="0"/>
		<edge from-layer="59" from-port="1" to-layer="134" to-port="3"/>
		<edge from-layer="60" from-port="1" to-layer="61" to-port="0"/>
		<edge from-layer="61" from-port="1" to-layer="62" to-port="0"/>
		<edge from-layer="62" from-port="1" to-layer="138" to-port="3"/>
		<edge from-layer="63" from-port="2" to-layer="130" to-port="2"/>
		<edge from-layer="64" from-port="1" to-layer="65" to-port="0"/>
		<edge from-layer="65" from-port="1" to-layer="66" to-port="0"/>
		<edge from-layer="66" from-port="1" to-layer="134" to-port="2"/>
		<edge from-layer="67" from-port="1" to-layer="68" to-port="0"/>
		<edge from-layer="68" from-port="1" to-layer="69" to-port="0"/>
		<edge from-layer="69" from-port="1" to-layer="138" to-port="2"/>
		<edge from-layer="70" from-port="1" to-layer="71" to-port="0"/>
		<edge from-layer="71" from-port="1" to-layer="72" to-port="0"/>
		<edge from-layer="72" from-port="1" to-layer="73" to-port="0"/>
		<edge from-layer="73" from-port="1" to-layer="74" to-port="0"/>
		<edge from-layer="74" from-port="1" to-layer="75" to-port="0"/>
		<edge from-layer="75" from-port="1" to-layer="119" to-port="0"/>
		<edge from-layer="75" from-port="1" to-layer="116" to-port="0"/>
		<edge from-layer="75" from-port="1" to-layer="115" to-port="0"/>
		<edge from-layer="75" from-port="1" to-layer="76" to-port="0"/>
		<edge from-layer="76" from-port="1" to-layer="77" to-port="0"/>
		<edge from-layer="77" from-port="1" to-layer="78" to-port="0"/>
		<edge from-layer="78" from-port="1" to-layer="79" to-port="0"/>
		<edge from-layer="79" from-port="1" to-layer="80" to-port="0"/>
		<edge from-layer="80" from-port="1" to-layer="81" to-port="0"/>
		<edge from-layer="81" from-port="1" to-layer="112" to-port="0"/>
		<edge from-layer="81" from-port="1" to-layer="109" to-port="0"/>
		<edge from-layer="81" from-port="1" to-layer="108" to-port="0"/>
		<edge from-layer="81" from-port="1" to-layer="82" to-port="0"/>
		<edge from-layer="82" from-port="1" to-layer="83" to-port="0"/>
		<edge from-layer="83" from-port="1" to-layer="84" to-port="0"/>
		<edge from-layer="84" from-port="1" to-layer="85" to-port="0"/>
		<edge from-layer="85" from-port="1" to-layer="86" to-port="0"/>
		<edge from-layer="86" from-port="1" to-layer="87" to-port="0"/>
		<edge from-layer="87" from-port="1" to-layer="105" to-port="0"/>
		<edge from-layer="87" from-port="1" to-layer="102" to-port="0"/>
		<edge from-layer="87" from-port="1" to-layer="101" to-port="0"/>
		<edge from-layer="87" from-port="1" to-layer="88" to-port="0"/>
		<edge from-layer="88" from-port="1" to-layer="89" to-port="0"/>
		<edge from-layer="89" from-port="1" to-layer="90" to-port="0"/>
		<edge from-layer="90" from-port="1" to-layer="91" to-port="0"/>
		<edge from-layer="91" from-port="1" to-layer="92" to-port="0"/>
		<edge from-layer="92" from-port="1" to-layer="93" to-port="0"/>
		<edge from-layer="93" from-port="1" to-layer="98" to-port="0"/>
		<edge from-layer="93" from-port="1" to-layer="95" to-port="0"/>
		<edge from-layer="93" from-port="1" to-layer="94" to-port="0"/>
		<edge from-layer="94" from-port="2" to-layer="130" to-port="7"/>
		<edge from-layer="95" from-port="1" to-layer="96" to-port="0"/>
		<edge from-layer="96" from-port="1" to-layer="97" to-port="0"/>
		<edge from-layer="97" from-port="1" to-layer="134" to-port="7"/>
		<edge from-layer="98" from-port="1" to-layer="99" to-port="0"/>
		<edge from-layer="99" from-port="1" to-layer="100" to-port="0"/>
		<edge from-layer="100" from-port="1" to-layer="138" to-port="7"/>
		<edge from-layer="101" from-port="2" to-layer="130" to-port="6"/>
		<edge from-layer="102" from-port="1" to-layer="103" to-port="0"/>
		<edge from-layer="103" from-port="1" to-layer="104" to-port="0"/>
		<edge from-layer="104" from-port="1" to-layer="134" to-port="6"/>
		<edge from-layer="105" from-port="1" to-layer="106" to-port="0"/>
		<edge from-layer="106" from-port="1" to-layer="107" to-port="0"/>
		<edge from-layer="107" from-port="1" to-layer="138" to-port="6"/>
		<edge from-layer="108" from-port="2" to-layer="130" to-port="5"/>
		<edge from-layer="109" from-port="1" to-layer="110" to-port="0"/>
		<edge from-layer="110" from-port="1" to-layer="111" to-port="0"/>
		<edge from-layer="111" from-port="1" to-layer="134" to-port="5"/>
		<edge from-layer="112" from-port="1" to-layer="113" to-port="0"/>
		<edge from-layer="113" from-port="1" to-layer="114" to-port="0"/>
		<edge from-layer="114" from-port="1" to-layer="138" to-port="5"/>
		<edge from-layer="115" from-port="2" to-layer="130" to-port="4"/>
		<edge from-layer="116" from-port="1" to-layer="117" to-port="0"/>
		<edge from-layer="117" from-port="1" to-layer="118" to-port="0"/>
		<edge from-layer="118" from-port="1" to-layer="134" to-port="4"/>
		<edge from-layer="119" from-port="1" to-layer="120" to-port="0"/>
		<edge from-layer="120" from-port="1" to-layer="121" to-port="0"/>
		<edge from-layer="121" from-port="1" to-layer="138" to-port="4"/>
		<edge from-layer="122" from-port="2" to-layer="130" to-port="1"/>
		<edge from-layer="123" from-port="1" to-layer="124" to-port="0"/>
		<edge from-layer="124" from-port="1" to-layer="125" to-port="0"/>
		<edge from-layer="125" from-port="1" to-layer="134" to-port="1"/>
		<edge from-layer="126" from-port="1" to-layer="127" to-port="0"/>
		<edge from-layer="127" from-port="1" to-layer="128" to-port="0"/>
		<edge from-layer="128" from-port="1" to-layer="138" to-port="1"/>
		<edge from-layer="129" from-port="2" to-layer="130" to-port="0"/>
		<edge from-layer="130" from-port="8" to-layer="143" to-port="2"/>
		<edge from-layer="131" from-port="1" to-layer="132" to-port="0"/>
		<edge from-layer="132" from-port="1" to-layer="133" to-port="0"/>
		<edge from-layer="133" from-port="1" to-layer="134" to-port="0"/>
		<edge from-layer="134" from-port="8" to-layer="143" to-port="0"/>
		<edge from-layer="135" from-port="1" to-layer="136" to-port="0"/>
		<edge from-layer="136" from-port="1" to-layer="137" to-port="0"/>
		<edge from-layer="137" from-port="1" to-layer="138" to-port="0"/>
		<edge from-layer="138" from-port="8" to-layer="140" to-port="0"/>
		<edge from-layer="139" from-port="0" to-layer="140" to-port="1"/>
		<edge from-layer="140" from-port="2" to-layer="141" to-port="0"/>
		<edge from-layer="141" from-port="1" to-layer="142" to-port="0"/>
		<edge from-layer="142" from-port="1" to-layer="143" to-port="1"/>
	</edges>
	<statistics>
		<layer>
			<name>Mul_/Fused_Mul_/FusedScaleShift_</name>
			<min>-1.768000, -1.989000, -2.091000</min>
			<max>2.567000, 2.346000, 2.244000</max>
		</layer>
		<layer>
			<name>conv1</name>
			<min>… -2.964340</min>
			<max>… 3.853718</max>
		</layer>
		<layer>
			<name>conv2_1/dw</name>
			<min>… -5.206862</min>
			<max>… 7.916028</max>
		</layer>
		<layer>
			<name>conv2_1/sep</name>
			<min>… -12.384755</min>
			<max>… 14.417471</max>
		</layer>
		<layer>
			<name>conv2_2/dw</name>
			<min>… -10.547348</min>
			<max>… 18.001551</max>
		</layer>
		<layer>
			<name>conv2_2/sep</name>
			<min>… -7.737603</min>
			<max>… 10.084056</max>
		</layer>
		<layer>
			<name>conv3_1/dw</name>
			<min>… -11.575610</min>
			<max>… 3.194839</max>
		</layer>
		<layer>
			<name>conv3_1/sep</name>
			<min>… -4.672476</min>
			<max>… 9.564748</max>
		</layer>
		<layer>
			<name>conv3_2/dw</name>
			<min>… -2.806739</min>
			<max>… 9.638006</max>
		</layer>
		<layer>
			<name>conv3_2/sep</name>
			<min>… -8.269874</min>
			<max>… 5.815215</max>
		</layer>
		<layer>
			<name>conv4_1/dw</name>
			<min>… -8.333401</min>
			<max>… 3.915673</max>
		</layer>
		<layer>
			<name>conv4_1/sep</name>
			<min>… -4.926304</min>
			<max>… 6.885880</max>
		</layer>
		<layer>
			<name>conv4_2/dw</name>
			<min>… -2.707362</min>
			<max>… 7.060780</max>
		</layer>
		<layer>
			<name>conv4_2/sep</name>
			<min>… -6.616021</min>
			<max>… 11.068808</max>
		</layer>
		<layer>
			<name>conv4_3_0_norm_mbox_conf</name>
			<min>-0.041421, -38.553562, -1.464844, -34.735573, -0.159444, -36.186642, 0.668686, -39.082222</min>
			<max>40.019779, 1.159698, 38.966747, 3.144692, 35.508080, 1.206616, 40.622211, 0.403344</max>
		</layer>
		<layer>
			<name>conv4_3_0_norm_mbox_conf_flat</name>
			<min>… -6.548741</min>
			<max>… -2.991330</max>
		</layer>
		<layer>
			<name>conv4_3_0_norm_mbox_conf_perm</name>
			<min>… -11.697282</min>
			<max>… 11.921371</max>
		</layer>
		<layer>
			<name>conv4_3_0_norm_mbox_loc</name>
			<min>-4.444850, -7.699457, -5.830676, -12.284122, -3.673941, -5.364267, -7.371369, -9.070927, -4.337414, -7.758510, -9.161595, -7.113461, -5.192503, -5.012366, -4.382415, -11.550097</min>
			<max>4.443492, 4.375399, 2.916517, 1.419587, 3.553008, 4.355842, 2.819018, 1.409943, 4.115523, 4.045611, 2.519221, 3.770876, 4.928292, 4.167162, 5.415432, 0.605643</max>
		</layer>
		<layer>
			<name>conv4_3_0_norm_mbox_loc_flat</name>
			<min>… -2.469268</min>
			<max>… -0.944937</max>
		</layer>
		<layer>
			<name>conv4_3_0_norm_mbox_loc_perm</name>
			<min>… -5.762186</min>
			<max>… 3.248973</max>
		</layer>
		<layer>
			<name>conv4_3_0_norm_mbox_priorbox</name>
			<min>-0.011442</min>
			<max>1.011442</max>
		</layer>
		<layer>
			<name>conv4_3_norm_mbox_conf</name>
			<min>-3.294825, -28.784264, -2.665631, -30.197971, -2.919849, -33.151627, 1.596827, -51.098801</min>
			<max>44.725658, 2.821236, 58.053112, 6.329964, 48.886909, 3.213333, 69.870041, -1.141230</max>
		</layer>
		<layer>
			<name>conv4_3_norm_mbox_conf_flat</name>
			<min>… -5.916087</min>
			<max>… -2.506370</max>
		</layer>
		<layer>
			<name>conv4_3_norm_mbox_conf_perm</name>
			<min>… -12.538765</min>
			<max>… 17.664106</max>
		</layer>
		<layer>
			<name>conv4_3_norm_mbox_loc</name>
			<min>-2.666960, -6.209338, -9.365902, -11.586642, -2.513776, -4.446315, -4.753839, -5.880859, -1.923887, -6.424689, -10.431843, -8.424068, -2.829164, -5.645254, -8.530430, -13.043011</min>
			<max>2.780355, 4.558262, 2.685036, 1.115942, 3.437181, 2.996173, 3.413819, 2.722662, 3.545110, 4.492937, 2.893536, 2.138882, 3.268914, 4.624974, 2.678191, 1.895412</max>
		</layer>
		<layer>
			<name>conv4_3_norm_mbox_loc_flat</name>
			<min>… -2.566044</min>
			<max>… -1.169979</max>
		</layer>
		<layer>
			<name>conv4_3_norm_mbox_loc_perm</name>
			<min>… -6.155024</min>
			<max>… 2.239929</max>
		</layer>
		<layer>
			<name>conv4_3_norm_mbox_priorbox</name>
			<min>-0.049877</min>
			<max>1.049877</max>
		</layer>
		<layer>
			<name>conv5_1/dw</name>
			<min>… -8.018112</min>
			<max>… 2.891902</max>
		</layer>
		<layer>
			<name>conv5_1/sep</name>
			<min>… -3.318988</min>
			<max>… 6.048748</max>
		</layer>
		<layer>
			<name>conv5_2/dw</name>
			<min>… -7.298580</min>
			<max>… 1.769909</max>
		</layer>
		<layer>
			<name>conv5_2/sep</name>
			<min>… -5.258911</min>
			<max>… 5.200281</max>
		</layer>
		<layer>
			<name>conv5_3/dw</name>
			<min>… -9.183134</min>
			<max>… 3.099927</max>
		</layer>
		<layer>
			<name>conv5_3/sep</name>
			<min>… -4.817301</min>
			<max>… 5.255197</max>
		</layer>
		<layer>
			<name>conv5_4/dw</name>
			<min>… -6.663931</min>
			<max>… 6.370747</max>
		</layer>
		<layer>
			<name>conv5_4/sep</name>
			<min>… -16.759525</min>
			<max>… 4.390387</max>
		</layer>
		<layer>
			<name>conv5_5/dw</name>
			<min>… -3.799734</min>
			<max>… 4.289067</max>
		</layer>
		<layer>
			<name>conv5_5/sep</name>
			<min>… -4.535815</min>
			<max>… 4.137498</max>
		</layer>
		<layer>
			<name>conv5_6/dw</name>
			<min>… -4.845011</min>
			<max>… 1.821239</max>
		</layer>
		<layer>
			<name>conv5_6/sep</name>
			<min>… -4.286019</min>
			<max>… 3.959911</max>
		</layer>
		<layer>
			<name>conv6/dw</name>
			<min>… -5.339351</min>
			<max>… 4.254448</max>
		</layer>
		<layer>
			<name>conv6/sep</name>
			<min>… -6.427569</min>
			<max>… 5.215293</max>
		</layer>
		<layer>
			<name>conv6_1</name>
			<min>… -3.324667</min>
			<max>… 3.783006</max>
		</layer>
		<layer>
			<name>conv6_2</name>
			<min>… -6.717236</min>
			<max>… 1.801794</max>
		</layer>
		<layer>
			<name>conv6_2/dw</name>
			<min>… -3.848228</min>
			<max>… 1.166337</max>
		</layer>
		<layer>
			<name>conv6_2_mbox_conf</name>
			<min>0.585584, -11.543135, -0.445282, -12.617741, -0.109913, -14.073544, 3.614916, -10.632623, 1.065720, -13.080957, 3.049231, -8.919775</min>
			<max>18.343048, 1.504956, 24.814024, 2.127332, 21.666233, 1.258069, 15.146670, -0.959618, 21.754450, -0.843074, 9.410818, -2.992716</max>
		</layer>
		<layer>
			<name>conv6_2_mbox_conf_flat</name>
			<min>… -4.378582</min>
			<max>… -3.157441</max>
		</layer>
		<layer>
			<name>conv6_2_mbox_conf_perm</name>
			<min>-12.508094, -14.073544, -9.479659, -9.355343, -11.345793, -11.034176</min>
			<max>24.814024, 21.666233, 13.440708, 13.297940, 13.110662, 13.792014</max>
		</layer>
		<layer>
			<name>conv6_2_mbox_loc</name>
			<min>… -0.053116</min>
			<max>… 0.027641</max>
		</layer>
		<layer>
			<name>conv6_2_mbox_loc_flat</name>
			<min>… -0.050475</min>
			<max>… -0.041525</max>
		</layer>
		<layer>
			<name>conv6_2_mbox_loc_perm</name>
			<min>-3.217911, -1.900389, -2.037032, -2.846261, -2.494847, -2.051752</min>
			<max>2.624927, 2.403864, 2.378470, 2.632729, 2.329972, 2.374214</max>
		</layer>
		<layer>
			<name>conv6_2_mbox_priorbox</name>
			<min>-0.306378</min>
			<max>1.306378</max>
		</layer>
		<layer>
			<name>conv7_1</name>
			<min>… -2.944117</min>
			<max>… 2.879095</max>
		</layer>
		<layer>
			<name>conv7_2</name>
			<min>… -2.316384</min>
			<max>… 2.463554</max>
		</layer>
		<layer>
			<name>conv7_2/dw</name>
			<min>… -2.661524</min>
			<max>… 3.089280</max>
		</layer>
		<layer>
			<name>conv7_2_mbox_conf</name>
			<min>4.134881, -7.838976, 4.015552, -8.751730, 2.600768, -9.665948, 4.380139, -5.857477, 3.181999, -10.122161, 4.017675, -3.668506</min>
			<max>13.438320, 0.126098, 16.953646, 0.375962, 14.344947, 0.520759, 10.827019, -1.027370, 12.830187, -0.547259, 5.777332, -1.910676</max>
		</layer>
		<layer>
			<name>conv7_2_mbox_conf_flat</name>
			<min>… -2.730231</min>
			<max>… -2.143676</max>
		</layer>
		<layer>
			<name>conv7_2_mbox_conf_perm</name>
			<min>-9.746149, -9.718163, -8.508889</min>
			<max>12.914492, 12.378092, 16.953646</max>
		</layer>
		<layer>
			<name>conv7_2_mbox_loc</name>
			<min>… -1.463340</min>
			<max>… -1.462324</max>
		</layer>
		<layer>
			<name>conv7_2_mbox_loc_flat</name>
			<min>… -1.462464</min>
			<max>… -1.462399</max>
		</layer>
		<layer>
			<name>conv7_2_mbox_loc_perm</name>
			<min>-2.047461, -2.670861, -2.499425</min>
			<max>1.825258, 1.971307, 2.249765</max>
		</layer>
		<layer>
			<name>conv7_2_mbox_priorbox</name>
			<min>-0.352949</min>
			<max>1.352949</max>
		</layer>
		<layer>
			<name>conv8_1</name>
			<min>… -1.311913</min>
			<max>… 2.053890</max>
		</layer>
		<layer>
			<name>conv8_2</name>
			<min>… -2.223939</min>
			<max>… 2.055481</max>
		</layer>
		<layer>
			<name>conv8_2/dw</name>
			<min>… -1.028190</min>
			<max>… 2.671752</max>
		</layer>
		<layer>
			<name>conv8_2_mbox_conf</name>
			<min>5.275235, -7.308071, 5.014318, -8.016937, 4.408165, -11.437387, 4.395042, -7.596138</min>
			<max>10.325468, -1.280290, 10.471064, -1.644577, 11.989184, -0.728634, 10.923906, -2.275531</max>
		</layer>
		<layer>
			<name>conv8_2_mbox_conf_flat</name>
			<min>… -4.351768</min>
			<max>… -2.610183</max>
		</layer>
		<layer>
			<name>conv8_2_mbox_conf_perm</name>
			<min>-11.437387, -7.152346</min>
			<max>10.833882, 12.050711</max>
		</layer>
		<layer>
			<name>conv8_2_mbox_loc</name>
			<min>-1.060219, -1.632432, -1.140229, -1.860578, -1.287498, -1.514836, -0.974782, -1.581041, -1.892071, -1.564931, -1.716636, -1.561830, -0.150506, -0.080505, 0.077832, -1.383583</min>
			<max>0.997666, 1.131035, 1.281700, -0.410612, 1.495365, 1.925407, 1.433679, -0.135597, 2.049631, 2.426262, 1.732808, 1.425657, 1.006560, 0.751474, 1.055093, -1.015875</max>
		</layer>
		<layer>
			<name>conv8_2_mbox_loc_flat</name>
			<min>… -1.284068</min>
			<max>… -1.149515</max>
		</layer>
		<layer>
			<name>conv8_2_mbox_loc_perm</name>
			<min>-1.653001, -2.021982</min>
			<max>2.426262, 2.089545</max>
		</layer>
		<layer>
			<name>conv8_2_mbox_priorbox</name>
			<min>-0.280330</min>
			<max>1.280330</max>
		</layer>
		<layer>
			<name>conv9_1</name>
			<min>… -2.134781</min>
			<max>… 2.395685</max>
		</layer>
		<layer>
			<name>conv9_2</name>
			<min>… -1.354966</min>
			<max>… 1.848001</max>
		</layer>
		<layer>
			<name>conv9_2/dw</name>
			<min>… -1.877579</min>
			<max>… 1.835034</max>
		</layer>
		<layer>
			<name>conv9_2_mbox_conf</name>
			<min>6.127034, -6.392623, 6.574677, -6.581076, 5.656417, -6.688717, 3.470661, -3.672052</min>
			<max>11.980503, -0.206182, 12.336233, -0.184015, 11.926339, -1.067395, 4.691769, -2.456667</max>
		</layer>
		<layer>
			<name>conv9_2_mbox_conf_flat</name>
			<min>6.595111, -5.126414, 6.929174, -5.765765, 5.656417, -5.581584, 3.502107, -3.672052, 6.831411, -6.392623, 6.810012, -6.529428, 6.752123, -6.661224, 3.484233, -3.158315</min>
			<max>11.980503, -0.487776, 12.222257, -0.320294, 11.909204, -1.114523, 4.691769, -2.478408, 10.878978, -2.071071, 11.271488, -1.635963, 10.969418, -2.510447, 4.176193, -2.472070</max>
		</layer>
		<layer>
			<name>conv9_2_mbox_conf_perm</name>
			<min>-6.983641</min>
			<max>12.630711</max>
		</layer>
		<layer>
			<name>conv9_2_mbox_loc</name>
			<min>-2.061565, -1.053353, -0.754706, -1.863988, -2.990245, -0.920543, -0.393969, -1.662713, -1.690874, -1.113057, -1.671749, -0.819849, 0.084759, 0.025437, 1.376135, -1.303942</min>
			<max>2.403183, 0.626175, 1.854940, 0.153136, 3.341128, 0.709885, 2.127898, 0.028704, 2.439613, 0.891009, 0.410431, 0.642784, 0.084826, 0.025608, 1.376314, -1.303780</max>
		</layer>
		<layer>
			<name>conv9_2_mbox_loc_flat</name>
			<min>… -1.303942</min>
			<max>… -1.303835</max>
		</layer>
		<layer>
			<name>conv9_2_mbox_loc_perm</name>
			<min>-2.990245</min>
			<max>3.341128</max>
		</layer>
		<layer>
			<name>conv9_2_mbox_priorbox</name>
			<min>-0.136396</min>
			<max>1.136396</max>
		</layer>
		<layer>
			<name>data</name>
			<min>0.000000, 0.000000, 0.000000</min>
			<max>255.000000, 255.000000, 255.000000</max>
		</layer>
		<layer>
			<name>detection_out</name>
			<min>-1.000000</min>
			<max>1.002456</max>
		</layer>
		<layer>
			<name>fc7_0_mbox_conf</name>
			<min>-4.398286, -32.379860, -4.163702, -24.499689, -3.911386, -30.847223, 2.610798, -23.523579, -1.714039, -34.882828, 3.054026, -19.366877</min>
			<max>39.597343, 3.423630, 30.678339, 2.702037, 36.333332, 3.223907, 27.893738, -2.303186, 39.398846, 1.114020, 21.429514, -2.499170</max>
		</layer>
		<layer>
			<name>fc7_0_mbox_conf_flat</name>
			<min>… -5.806313</min>
			<max>… -3.257212</max>
		</layer>
		<layer>
			<name>fc7_0_mbox_conf_perm</name>
			<min>-27.948812, -34.882828, -22.662704, -16.040781, -13.620070, -12.406149, -13.369113, -13.691178, -12.548926, -13.289756, -16.545742, -12.727227</min>
			<max>33.959778, 39.597343, 24.523228, 17.310423, 14.496731, 13.934689, 14.848823, 15.367846, 13.456879, 13.266429, 16.104118, 12.609483</max>
		</layer>
		<layer>
			<name>fc7_0_mbox_loc</name>
			<min>… -3.566099</min>
			<max>… -0.303643</max>
		</layer>
		<layer>
			<name>fc7_0_mbox_loc_flat</name>
			<min>… -0.754488</min>
			<max>… -0.430692</max>
		</layer>
		<layer>
			<name>fc7_0_mbox_loc_perm</name>
			<min>-4.255631, -4.446344, -3.168650, -2.396628, -2.860765, -3.762496, -5.068776, -5.904662, -5.808948, -5.777485, -4.736019, -2.582526</min>
			<max>5.236351, 5.320051, 2.676625, 2.109085, 2.536543, 3.080584, 3.072255, 2.811705, 2.428918, 1.685219, 2.049606, 1.780609</max>
		</layer>
		<layer>
			<name>fc7_0_mbox_priorbox</name>
			<min>-0.131538</min>
			<max>1.131538</max>
		</layer>
		<layer>
			<name>fc7_mbox_conf</name>
			<min>-3.396317, -17.001968, -2.663825, -12.409202, -5.020628, -23.036070, 2.812640, -19.738417, -2.216008, -29.607510, 3.030706, -13.790174</min>
			<max>29.308115, 3.695675, 28.557632, 3.894328, 32.856007, 4.193908, 30.480192, -0.981639, 35.142899, 0.196569, 15.602537, -2.718843</max>
		</layer>
		<layer>
			<name>fc7_mbox_conf_flat</name>
			<min>… -4.999100</min>
			<max>… -3.039116</max>
		</layer>
		<layer>
			<name>fc7_mbox_conf_perm</name>
			<min>-22.153393, -29.607510, -21.215006, -15.225595, -12.453634, -11.120618, -11.685534, -11.677032, -10.782685, -11.257286, -13.658568, -11.780824</min>
			<max>29.519993, 35.142899, 25.606991, 18.069004, 14.715371, 13.462631, 14.493088, 13.674402, 13.051089, 13.421698, 15.536963, 14.178363</max>
		</layer>
		<layer>
			<name>fc7_mbox_loc</name>
			<min>… -1.656777</min>
			<max>… -0.316814</max>
		</layer>
		<layer>
			<name>fc7_mbox_loc_flat</name>
			<min>… -0.568825</min>
			<max>… -0.403792</max>
		</layer>
		<layer>
			<name>fc7_mbox_loc_perm</name>
			<min>-10.563193, -11.213405, -7.165396, -6.741523, -5.621469, -6.360025, -8.712913, -12.641566, -14.852977, -14.982690, -15.141182, -9.315188</min>
			<max>4.063715, 4.101458, 2.681284, 1.781682, 1.985803, 2.615588, 2.755242, 2.683202, 2.310492, 2.227549, 2.379691, 1.749369</max>
		</layer>
		<layer>
			<name>fc7_mbox_priorbox</name>
			<min>-0.239792</min>
			<max>1.239792</max>
		</layer>
		<layer>
			<name>mbox_conf</name>
			<min>… -3.158315</min>
			<max>… -2.472070</max>
		</layer>
		<layer>
			<name>mbox_conf_flatten</name>
			<min>… 0.000652</min>
			<max>… 0.002583</max>
		</layer>
		<layer>
			<name>mbox_conf_reshape</name>
			<min>-51.098801</min>
			<max>69.870041</max>
		</layer>
		<layer>
			<name>mbox_conf_softmax</name>
			<min>0.000000</min>
			<max>1.000000</max>
		</layer>
		<layer>
			<name>mbox_loc</name>
			<min>… -1.303942</min>
			<max>… -1.303835</max>
		</layer>
		<layer>
			<name>mbox_priorbox</name>
			<min>-0.352949</min>
			<max>1.352949</max>
		</layer>
		<layer>
			<name>relu1</name>
			<min>… -0.000000</min>
			<max>… 3.853718</max>
		</layer>
		<layer>
			<name>relu2_1/dw</name>
			<min>… -0.000000</min>
			<max>… 7.916028</max>
		</layer>
		<layer>
			<name>relu2_1/sep</name>
			<min>… -0.000000</min>
			<max>… 14.417471</max>
		</layer>
		<layer>
			<name>relu2_2/dw</name>
			<min>… -0.000000</min>
			<max>… 18.001551</max>
		</layer>
		<layer>
			<name>relu2_2/sep</name>
			<min>… -0.000000</min>
			<max>… 10.084056</max>
		</layer>
		<layer>
			<name>relu3_1/dw</name>
			<min>… -0.000000</min>
			<max>… 3.194839</max>
		</layer>
		<layer>
			<name>relu3_1/sep</name>
			<min>… -0.000000</min>
			<max>… 9.564748</max>
		</layer>
		<layer>
			<name>relu3_2/dw</name>
			<min>… -0.000000</min>
			<max>… 9.638006</max>
		</layer>
		<layer>
			<name>relu3_2/sep</name>
			<min>… -0.000000</min>
			<max>… 5.815215</max>
		</layer>
		<layer>
			<name>relu4_1/dw</name>
			<min>… -0.000000</min>
			<max>… 3.915673</max>
		</layer>
		<layer>
			<name>relu4_1/sep</name>
			<min>… -0.000000</min>
			<max>… 6.885880</max>
		</layer>
		<layer>
			<name>relu4_2/dw</name>
			<min>… -0.000000</min>
			<max>… 7.060780</max>
		</layer>
		<layer>
			<name>relu4_2/sep</name>
			<min>… -0.000000</min>
			<max>… 11.068808</max>
		</layer>
		<layer>
			<name>relu5_1/dw</name>
			<min>… -0.000000</min>
			<max>… 2.891902</max>
		</layer>
		<layer>
			<name>relu5_1/sep</name>
			<min>… -0.000000</min>
			<max>… 6.048748</max>
		</layer>
		<layer>
			<name>relu5_2/dw</name>
			<min>… -0.000000</min>
			<max>… 1.769909</max>
		</layer>
		<layer>
			<name>relu5_2/sep</name>
			<min>… -0.000000</min>
			<max>… 5.200281</max>
		</layer>
		<layer>
			<name>relu5_3/dw</name>
			<min>… -0.000000</min>
			<max>… 3.099927</max>
		</layer>
		<layer>
			<name>relu5_3/sep</name>
			<min>… -0.000000</min>
			<max>… 5.255197</max>
		</layer>
		<layer>
			<name>relu5_4/dw</name>
			<min>… -0.000000</min>
			<max>… 6.370747</max>
		</layer>
		<layer>
			<name>relu5_4/sep</name>
			<min>… -0.000000</min>
			<max>… 4.390387</max>
		</layer>
		<layer>
			<name>relu5_5/dw</name>
			<min>… -0.000000</min>
			<max>… 4.289067</max>
		</layer>
		<layer>
			<name>relu5_5/sep</name>
			<min>… -0.000000</min>
			<max>… 4.137498</max>
		</layer>
		<layer>
			<name>relu5_6/dw</name>
			<min>… -0.000000</min>
			<max>… 1.821239</max>
		</layer>
		<layer>
			<name>relu5_6/sep</name>
			<min>… -0.000000</min>
			<max>… 3.959911</max>
		</layer>
		<layer>
			<name>relu6/dw</name>
			<min>… -0.000000</min>
			<max>… 4.254448</max>
		</layer>
		<layer>
			<name>relu6/sep</name>
			<min>… -0.000000</min>
			<max>… 5.215293</max>
		</layer>
		<layer>
			<name>relu6_1</name>
			<min>… -0.000000</min>
			<max>… 3.783006</max>
		</layer>
		<layer>
			<name>relu6_2</name>
			<min>… -0.000000</min>
			<max>… 1.801794</max>
		</layer>
		<layer>
			<name>relu6_2/dw</name>
			<min>… -0.000000</min>
			<max>… 1.166337</max>
		</layer>
		<layer>
			<name>relu7_1</name>
			<min>… -0.000000</min>
			<max>… 2.879095</max>
		</layer>
		<layer>
			<name>relu7_2</name>
			<min>… -0.000000</min>
			<max>… 2.463554</max>
		</layer>
		<layer>
			<name>relu7_2/dw</name>
			<min>… -0.000000</min>
			<max>… 3.089280</max>
		</layer>
		<layer>
			<name>relu8_1</name>
			<min>… -0.000000</min>
			<max>… 2.053890</max>
		</layer>
		<layer>
			<name>relu8_2</name>
			<min>… -0.000000</min>
			<max>… 2.055481</max>
		</layer>
		<layer>
			<name>relu8_2/dw</name>
			<min>… -0.000000</min>
			<max>… 2.671752</max>
		</layer>
		<layer>
			<name>relu9_1</name>
			<min>… -0.000000</min>
			<max>… 2.395685</max>
		</layer>
		<layer>
			<name>relu9_2</name>
			<min>… -0.000000</min>
			<max>… 1.848001</max>
		</layer>
		<layer>
			<name>relu9_2/dw</name>
			<min>… -0.000000</min>
			<max>… 1.835034</max>
		</layer>
	</statistics>
</net>